CovNet__weights.pth (torch, 105449 bytes, 20 tensors)

conv_1.0.weight f4 [16, 1, 3, 3]
1.2783856 -0.6572781 -0.2342822 0.31902194 -2.8556342 0.34188977 -0.56924325 -0.6042916
1.7135229 -1.5462936 0.9617853 1.1469939 -1.7310077 -0.9786648 0.834295 -0.28701043
-1.5696814 -1.6443979 1.7078866 1.3985677 -0.7465874 -1.5324756 -0.6065098 -0.52369714
-1.4027061 -0.3031375 0.84491557 -0.18436277 -0.012481976 1.1600398 0.4669143 1.1238556
1.5751182 -1.2566607 -2.74156 -0.7240824 1.0355016 1.7092823 -0.84993756 1.3266811
0.30700266 -1.7014004 1.1249032 -0.6896245 -1.5806775 1.1827341 0.15782446 -2.3137605
-0.5653473 -2.3207004 -0.7494084 -2.6068552 0.5216036 0.5093004 0.76152587 1.5893589
-1.0034269 -1.2588462 0.83835894 1.2169524 -1.5892231 -0.67290086 1.7116807 1.9096366
-1.089519 -1.776103 1.8394643 -0.38367683 -1.3620145 0.62797016 0.45352435 0.065680996
1.8534687 0.24605855 1.0240644 0.9693488 1.0557002 0.30703104 -1.1972224 -0.78726333
-1.7770875 -0.544819 -1.1054482 -0.9717221 -0.13548893 -1.0317286 -1.8031479 1.8019797
1.6699773 0.70218676 -1.0587035 -2.6094062 0.15238701 1.1275808 -1.3445674 -1.9099784
1.21531 0.07401626 -1.0511487 -1.8111364 1.7509917 -0.24884719 -1.2345998 1.7137954
-0.21760829 -1.6274586 1.0877706 0.07446715 1.5508047 -1.3514863 -1.4159862 1.8423054
-0.08940802 0.02402807 0.27697062 1.5129662 1.6175135 -0.70328194 -1.8654579 -1.9169903
-1.7831098 -0.12673478 0.9664372 -1.2089115 1.4633435 0.40373376 -1.6415129 -1.7977974
-0.2910764 -0.75468254 0.36446652 1.3909512 1.8247554 1.278448 -0.8876716 1.028263
1.6051996 0.39859483 -1.5375715 -0.21374705 -0.709728 -1.6571224 -1.0862105 -1.4494907
00000000: 24a2 a33f 6143 28bf ace7 6fbe d856 a33e
00000010: b6c2 36c0 2d0c af3e edb9 11bf dbb2 1abf
00000020: b854 db3f f3ec c5bf 9037 763f b2d0 923f
00000030: a991 ddbf c789 7abf 5b94 553f 08f3 92be
00000040: 52eb c8bf a17b d2bf 079c da3f 4404 b33f
00000050: 5a20 3fbf 2928 c4bf 3a44 1bbf 0411 06bf
00000060: e08b b3bf d734 9bbe 634c 583f 98c9 3cbe
00000070: 3481 4cbc 2f7c 943f 640f ef3e 80da 8f3f
00000080: 799d c93f 42da a0bf b875 2fc0 775d 39bf
00000090: 518b 843f c3c9 da3f 8295 59bf b0d0 a93f
000000a0: 742f 9d3e 7dc7 d9bf d4fc 8f3f 3b8b 30bf
000000b0: a453 cabf d563 973f bc9c 213e a714 14c0
000000c0: 9aba 10bf 5b86 14c0 3bd9 3fbf b7d6 26c0
000000d0: d087 053f 8361 023f 5cf3 423f 1d70 cb3f
000000e0: 4b70 80bf df21 a1bf b19e 563f 19c5 9b3f
000000f0: aa6b cbbf 3b43 2cbf 5a18 db3f f96e f43f
00000100: 5c75 8bbf 5857 e3bf 9173 eb3f 4a71 c4be
00000110: 7e56 aebf a7c2 203f 5834 e83e c283 863d
00000120: 763e ed3f c6f6 7b3e 8b14 833f 3e27 783f
00000130: 2f21 873f 2c33 9d3e 953e 99bf 178a 49bf
00000140: 9a77 e3bf 4279 0bbf 547f 8dbf c8c2 78bf
00000150: 9cbd 0abe af0f 84bf 8dcd e6bf 45a7 e63f
00000160: d1c1 d53f 83c2 333f 9983 87bf 8300 27c0
00000170: 570b 1c3e 9154 903f c91a acbf 2c7a f4bf
00000180: 478f 9b3f d695 973d 0a8c 86bf 51d3 e7bf
00000190: 7f20 e03f ccd1 7ebe 5e07 9ebf a65d db3f
000001a0: b5d4 5ebe 9050 d0bf 113c 8b3f 3c82 983d
000001b0: c580 c63f 81fd acbf 093f b5bf aad0 eb3f
000001c0: 8d1b b7bd 84d6 c43c 18cf 8d3e e0a8 c13f
000001d0: af0a cf3f 490a 34bf 53c7 eebf f05f f5bf
000001e0: f13c e4bf c3c6 01be 6e68 773f 9dbd 9abf
000001f0: d74e bb3f 31b6 ce3e 181d d2bf 3a1e e6bf
00000200: f707 95be e032 41bf 5b9b ba3e b00a b23f
00000210: 9691 e93f 2fa4 a33f 723e 63bf 1f9e 833f
00000220: 2e77 cd3f 9f14 cc3e 25cf c4bf 82e0 5abe
00000230: bcb0 35bf 961c d4bf f208 8bbf e988 b9bf

conv_1.0.bias f4 [16]
-0.30338767 -1.227781 0.0064299977 -0.049098726 0.25563398 0.15362824 -0.20352153 -0.025729218
-0.11506616 0.24763665 -0.47023126 -0.1666241 -0.22578673 -0.37539795 -0.16860001 -0.10688041
00000000: a155 9bbe ee27 9dbf bbb2 d23b bf1b 49bd
00000010: 75e2 823e b950 1d3e f367 50be 15c6 d2bc
00000020: cfa7 ebbd 7694 7d3e 27c2 f0be 829f 2abe
00000030: a334 67be 2934 c0be 7ba5 2cbe 1ee4 dabd

conv_1.1.weight f4 [16]
1.6241678 3.9428246 0.7000202 1.6167022 1.2939125 3.82382 1.0384308 1.336809
0.7655661 1.9687926 3.601296 1.2246178 1.1775596 3.401452 0.9094665 1.771236
00000000: bbe4 cf3f 3d57 7c40 8634 333f 19f0 ce3f
00000010: ed9e a53f 78b9 7440 4deb 843f 8f1c ab3f
00000020: 24fc 433f 6501 fc3f a27b 6640 47c0 9c3f
00000030: 46ba 963f 64b1 5940 ccd2 683f dcb7 e23f

conv_1.1.bias f4 [16]
-0.11348224 -0.72997636 -0.5834993 -0.30687958 -0.104361124 -0.16940841 -1.9487875 -0.5296344
-1.2375199 -0.33519256 -0.2277344 -0.86521685 -1.5773789 -1.0930794 -0.20416741 -0.670514
00000000: 6069 e8bd bbdf 3abf 3660 15bf 521f 9dbe
00000010: 49bb d5bd 6679 2dbe de71 f9bf 1f96 07bf
00000020: 0d67 9ebf 5c9e abbe 3533 69be da7e 5dbf
00000030: 8de7 c9bf 07ea 8bbf 4311 51be cea6 2bbf

conv_1.1.running_mean f4 [16]
0.8052989 2.0812507 0.84899324 0.26270318 -0.24232593 4.419956 -1.3403074 -0.14347623
-1.2880008 1.2708825 3.2725391 0.032978546 -2.9902272 2.9435277 0.17335029 2.3736029
00000000: 1228 4e3f 3633 0540 9f57 593f 0881 863e
00000010: 4a24 78be 4870 8d40 318f abbf 6feb 12be
00000020: 36dd a4bf 47ac a23f 4871 5140 8314 073d
00000030: e25f 3fc0 c262 3c40 bd82 313e 1ce9 1740

conv_1.1.running_var f4 [16]
2.618331 8.130089 2.3612475 3.8270664 6.8121142 12.149743 2.8583739 5.111719
5.342318 5.145767 10.049024 2.531648 6.5929894 9.982837 4.0066032 7.649329
00000000: bc92 2740 d814 0241 ae1e 1740 a8ee 7440
00000010: d7fc d940 5965 4241 99ef 3640 3493 a340
00000020: 45f4 aa40 20aa a440 cdc8 2041 8506 2240
00000030: c5f9 d240 b3b9 1f41 1836 8040 4ec7 f440

conv_2.0.weight f4 [32, 16, 3, 3]
0.507322 1.9258529 1.3761591 0.20973963 -0.2560906 -0.09443953 -0.20292896 0.10377992
0.402816 -0.67540926 -1.3686138 0.37227368 -1.2240009 1.5707105 1.831697 4.244821
4.237879 0.16717406 0.7128999 1.502546 1.0397462 -0.32752153 -0.591515 -1.1044896
-1.7107732 -0.66837364 1.3878672 -1.1213202 -1.0170981 -0.16695724 -1.2165756 0.7575038
2.2235022 0.7019444 1.7075989 0.4576124 0.672257 -1.1032075 0.75257796 -0.55436224
-0.7301347 0.49511993 -1.466 -1.6554817 -0.9010828 0.99930257 1.9206787 -0.503396
1.8433032 -1.1809144 -0.8272678 0.59249556 -0.47529602 -0.13028502 -1.7192171 -0.7287976
-0.69262344 -0.53147274 -0.06453025 -1.5757576 0.6685498 0.42635882 0.4186737 0.20841196
-2.3129747 -1.6068227 -0.69063336 -0.4874145 -0.11346153 -0.5219145 -0.7506372 -0.5806465
0.5506345 -1.3753744 -0.14241761 -0.7417905 -1.3035768 1.507214 -1.7545482 -0.6871571
0.66687864 -0.5182209 0.10969061 0.04739523 -2.1468818 -0.5087246 0.8932793 -0.07679918
1.6593062 1.2238835 0.65695536 -1.8864756 -1.5513748 0.14761597 -0.026376294 0.47993964
1.798654 0.47027817 0.3405344 -2.1107454 -1.5055277 0.39527467 1.0302571 0.92914426
0.59108526 2.2066083 -0.12579262 -1.4570305 -0.4914392 -2.1352224 -1.4900123 -2.1756096
-1.2593133 0.35221925 -2.2099612 0.8139901 0.33280838 0.39108804 0.7974052 0.62782305
0.49863672 0.5792361 -0.060626384 -3.107798 -0.6140706 -0.21262273 -0.40327525 0.23727499
1.5131611 -1.9493952 -0.23691045 -0.23589332 -2.313387 -1.21743 0.33078614 1.5675085
0.39250517 0.7172237 -0.9402918 -0.3345293 1.4434656 -1.0094992 0.7963558 1.2558247
0.083203636 -0.5375153 -0.14451931 -1.6762929 0.25856537 0.713177 -3.1035283 -0.7220669
-0.990259 1.0130237 -0.22988962 0.10657087 -0.67295927 -2.2367496 1.3840503 1.4492706
0.64645666 2.808252 -0.4348101 -1.424117 0.061227992 -1.2469323 -0.72272205 0.5153338
-1.0869485 -1.5408574 -0.4350637 0.117022745 -0.6911273 -0.36382145 -0.5161349 -0.79848415
0.54205006 -0.90088516 0.31203282 1.1508907 -0.88940924 -0.25314534 -0.11124069 -1.5942265
0.18106198 -0.4326739 -0.9795908 -0.84421754 -1.4654237 0.65441793 0.50430465 2.0785594
-0.318625 1.0695345 1.6091447 0.54221326 0.6413471 0.19155744 0.04107659 -1.2505813
-1.5841116 0.020774418 -0.82244515 -0.11298276 -0.7096719 0.58126324 0.54705614 0.26723245
-1.8749077 -2.636977 -1.4413635 -0.9824457 -0.78277665 -0.21618234 0.010052242 -0.52179456
0.014925379 1.4460307 1.8041471 0.09730102 -0.0073134652 -0.5960231 -0.17195265 -1.0741279
0.104839005 -0.31843525 0.11463873 0.552787 -1.799894 -1.6829774 1.0703021 0.6342101
-1.3086721 -0.44126737 0.2234752 -0.044364836 -0.81300443 -0.58759207 0.058335222 0.65215564
1.7079515 0.64500993 -0.18172711 -0.6375791 -0.41083145 -2.8315923 -1.1497433 -0.68917704
0.3516493 -1.3759608 -0.11653072 1.1772584 0.6560124 -0.71839905 -0.90390724 -0.7261586
00000000: dbdf 013f 5982 f63f fb25 b03f fcc5 563e
00000010: 4f1e 83be 8369 c1bd 9ccc 4fbe 918a d43d
00000020: e63d ce3e 9fe7 2cbf bd2e afbf a89a be3e
00000030: 10ac 9cbf 0b0d c93f 0c75 ea3f 93d5 8740
00000040: b49c 8740 ad2f 2b3e 9c80 363f 6d53 c03f
00000050: 6716 853f e7b0 a7be 876d 17bf ea5f 8dbf
00000060: 9efa dabf 891a 2bbf a2a5 b13f 6c87 8fbf
00000070: 4530 82bf d7f6 2abe c0b8 9bbf c5eb 413f
00000080: dc4d 0e40 a1b2 333f 9a92 da3f 2c4c ea3e
00000090: 0919 2c3f e735 8dbf f3a8 403f afea 0dbf
000000a0: 1cea 3abf 5c80 fd3e e3a5 bbbf d3e6 d3bf
000000b0: 5dad 66bf 4bd2 7f3f cdd8 f53f 8fde 00bf
000000c0: 5cf1 eb3f 3428 97bf d3c7 53bf caad 173f
000000d0: 005a f3be 7069 05be 4e0f dcbf 7b92 3abf
000000e0: c54f 31bf 990e 08bf 7028 84bd 6db2 c9bf
000000f0: 1426 2b3f b44b da3e 665c d63e f269 553e
00000100: c707 14c0 5eac cdbf 59cd 30bf 658e f9be
00000110: 855e e8bd 309c 05bf c229 40bf 40a5 14bf
00000120: 62f6 0c3f 450c b0bf ecd5 11be fbe5 3dbf
00000130: 9bdb a6bf 63ec c03f 0995 e0bf 87e9 2fbf
00000140: 8fb8 2a3f 20aa 04bf 78a5 e03d 8021 423d
00000150: 8366 09c0 c63b 02bf f4ad 643f e348 9dbd
00000160: 2564 d43f 37a8 9c3f 3a2e 283f 0878 f1bf
00000170: 7393 c6bf a428 173e 1913 d8bc a6ba f53e
00000180: 4b3a e63f 4dc8 f03e 865a ae3e 7416 07c0
00000190: 22b5 c0bf 7161 ca3e 77df 833f 66dc 6d3f
000001a0: 5d51 173f 1239 0d40 c8cf 00be fa7f babf
000001b0: eb9d fbbe 7ca7 08c0 b9b8 bebf 303d 0bc0
000001c0: 2e31 a1bf 1556 b43e 0170 0dc0 a861 503f
000001d0: dc65 aa3e b13c c83e bf22 4c3f 03b9 203f
000001e0: 504d ff3e d148 143f 5f53 78bd 2ae6 46c0
000001f0: bb33 1dbf c6b9 59be 187a cebe 37f8 723e
00000200: 43af c13f c885 f9bf a798 72be 058e 71be
00000210: 880e 14c0 bfd4 9bbf cd5c a93e 1ea4 c83f
00000220: 70f6 c83e f99b 373f f7b6 70bf 6d47 abbe
00000230: 7bc3 b83f 4537 81bf f9dd 4b3f ddbe a03f
00000240: ab66 aa3d 9a9a 09bf dffc 13be c490 d6bf
00000250: ae62 843e c592 363f 35a0 46c0 60d9 38bf
00000260: 9d81 7dbf c3aa 813f 2f68 6bbe d441 da3d
00000270: 0f47 2cbf e826 0fc0 8f28 b13f b381 b93f
00000280: 2f7e 253f 67ba 3340 6e9f debe 7749 b6bf
00000290: 34ca 7a3d 7a9b 9fbf 5004 39bf eaec 033f
000002a0: 2121 8bbf d13a c5bf abc0 debe 9fa9 ef3d
000002b0: b8ed 30bf ce46 babe 6b21 04bf 7569 4cbf
000002c0: cbc3 0a3f 69a0 66bf c4c2 9f3e 6350 933f
000002d0: 53b0 63bf 449c 81be 29d2 e3bd 9d0f ccbf
000002e0: 5068 393e 6f87 ddbe 76c6 7abf a41e 58bf
000002f0: 0193 bbbf ef87 273f 1c1a 013f 1e07 0540
00000300: d122 a3be 82e6 883f 74f8 cd3f 7dce 0a3f
00000310: 532f 243f a227 443e ed3f 283d 0c13 a0bf
00000320: 2bc4 cabf 1d2f aa3c c48b 52bf 8163 e7bd
00000330: 0fad 35bf abcd 143f df0b 0c3f b1d2 883e
00000340: fafc efbf 3bc4 28c0 997e b8bf 9081 7bbf
00000350: 0d64 48bf e75e 5dbe 29b2 243c 5494 05bf
00000360: 9489 743c 8917 b93f 4bee e63f c245 c73d
00000370: cba5 efbb f894 18bf 5b14 30be 067d 89bf
00000380: d5b5 d63d f209 a3be b6c7 ea3d 7383 0d3f
00000390: ed62 e6bf ce6b d7bf a9ff 883f 985b 223f
000003a0: 9182 a7bf cced e1be afd6 643e e7b7 35bd
000003b0: 0f21 50bf 6f6c 16bf eaf0 6e3d acf3 263f
000003c0: 289e da3f 5f1f 253f ac16 3abe 6238 23bf
000003d0: 8058 d2be cf38 35c0 ca2a 93bf e86d 30bf
000003e0: 610b b43e 7c1f b0bf a8a7 eebd 67b0 963f
000003f0: 6ef0 273f 00e9 37bf 7766 67bf 88e5 39bf

conv_2.0.bias f4 [32]
0.10688217 0.10126393 0.09291064 0.14566113 0.05796101 0.08485797 -0.030922951 0.025665099
-0.016107094 0.10597491 -0.06794303 -0.062437914 -0.050171603 -0.04673097 0.031621736 0.15957424
-0.06091709 -0.0020521767 -0.0484516 -0.054937363 -0.009204674 0.051376116 -0.07013272 0.05365571
0.14022432 -0.10317657 0.06023277 -0.052659295 -0.18385555 -0.052321587 -0.11361096 -0.02609094
00000000: 0ae5 da3d 7763 cf3d ef47 be3d 3128 153e
00000010: 8668 6d3d 04ca ad3d 2152 fdbc 9d3f d23c
00000020: 06f3 83bc 6009 d93d b725 8bbd e6be 7fbd
00000030: bd80 4dbd f968 3fbd cb85 013d 6e67 233e
00000040: 3384 79bd d07d 06bb 2f75 46bd 0006 61bd
00000050: 33cf 16bc c36f 523d bea1 8fbd 17c6 5b3d
00000060: f796 0f3e 3d4e d3bd a3b6 763d 46b1 57bd
00000070: a144 3cbe 294f 56bd ddac e8bd abbc d5bc

conv_2.1.weight f4 [32]
1.6981174 2.033981 1.8632404 1.3858211 1.2898737 2.0993042 2.6187766 1.6292598
1.4587339 1.3330065 1.4508905 1.2327309 2.0338633 1.575504 1.6081415 1.6569997
1.1753312 1.0234414 2.0667312 1.6515166 1.6260672 1.4947586 1.6121448 1.3624424
1.8647993 1.9171964 1.3950027 1.2208996 1.464279 1.4976778 1.8555115 0.8598506
00000000: e95b d93f bf2c 0240 a97e ee3f 9662 b13f
00000010: 951a a53f 005b 0640 099a 2740 968b d03f
00000020: cbb7 ba3f f59f aa3f c8b6 b93f 20ca 9d3f
00000030: d12a 0240 1daa c93f 95d7 cd3f 9118 d43f
00000040: 4171 963f 2100 833f 5345 0440 e564 d33f
00000050: f822 d03f 4054 bf3f c35a ce3f 8364 ae3f
00000060: beb1 ee3f b166 f53f 738f b23f 7046 9c3f
00000070: 7f6d bb3f e8b3 bf3f 6781 ed3f 2b1f 5c3f

conv_2.1.bias f4 [32]
-1.4702336 -1.3120122 -0.9320152 -1.0795605 -1.9946702 -1.680151 -0.33674714 -1.7120186
-2.5025532 -0.46676373 -0.8781209 -1.2358884 -1.5343256 -1.0240393 -1.6501131 -0.9384182
-1.132251 -1.4673812 -2.1802342 -0.8513482 -1.7310095 -2.5770507 -1.108492 -2.1938784
-1.8951342 -0.8778289 -0.87774825 -2.4637098 -0.9037284 -0.7064413 -1.4290879 -1.6358638
00000000: 9d30 bcbf 04f0 a7bf 8c98 6ebf 0a2f 8abf
00000010: 5a51 ffbf 300f d7bf 1f6a acbe 6d23 dbbf
00000020: d529 20c0 a8fb eebe 88cc 60bf 9731 9ebf
00000030: c864 c4bf b813 83bf e836 d3bf 2d3c 70bf
00000040: 9aed 90bf 26d3 bbbf f588 0bc0 f5f1 59bf
00000050: b891 ddbf 66ee 24c0 11e3 8dbf 8168 0cc0
00000060: c293 f2bf 65b9 60bf 1cb4 60bf 6cad 1dc0
00000070: bf5a 67bf 56d9 34bf 5aec b6bf fc63 d1bf

conv_2.1.running_mean f4 [32]
9.817449 -4.017625 -12.128498 -16.07687 -39.55156 15.367737 -35.40691 -17.207722
-14.273987 -23.228062 -39.712418 -8.426295 -11.941011 -7.531558 -2.7862618 -12.646559
-12.095273 -14.569515 -1.1256043 -17.82625 0.84236574 -1.392031 -5.224444 -8.127221
-0.71699435 5.003309 -27.225956 -10.264345 -26.459196 -14.595972 -13.440484 -20.07322
00000000: 4514 1d41 6290 80c0 540e 42c1 6e9d 80c1
00000010: cc34 1ec2 40e2 7541 ada0 0dc2 6aa9 89c1
00000020: 4062 64c1 12d3 b9c1 84d9 1ec2 1bd2 06c1
00000030: 620e 3fc1 8602 f1c0 1d52 32c0 4e58 4ac1
00000040: 3d86 41c1 bc1c 69c1 cd13 90bf 299c 8ec1
00000050: 48a5 573f 122e b2bf a52e a7c0 1909 02c1
00000060: f18c 37bf 1b1b a040 c2ce d9c1 c23a 24c1
00000070: 6fac d3c1 1a89 69c1 390c 57c1 f495 a0c1

conv_2.1.running_var f4 [32]
507.14294 535.2821 720.40765 491.97064 278.29126 486.48215 1102.3759 308.49185
355.00024 634.6045 526.2831 481.21603 553.07056 615.39154 578.01294 468.84
781.8591 437.83115 523.8302 604.7504 361.4283 175.66876 761.84216 341.07507
459.0039 482.9629 1029.207 280.6116 669.5518 780.2014 523.6804 293.63388
00000000: 4c92 fd43 0ed2 0544 171a 3444 3efc f543
00000010: 4825 8b43 b73d f343 07cc 8944 f53e 9a43
00000020: 0880 b143 b0a6 1e44 1e92 0344 a79b f043
00000030: 8444 0a44 0fd9 1944 d480 1044 856b ea43
00000040: fb76 4344 63ea da43 22f5 0244 0730 1744
00000050: d3b6 b443 34ab 2f43 e675 3e44 9c89 aa43
00000060: 8080 e543 407b f143 a0a6 8044 494e 8c43
00000070: 5163 2744 e40c 4344 8ceb 0244 23d1 9243

conv_3.0.weight f4 [64, 32, 3, 3]
0.20140344 -1.7323436 -0.40736884 0.10673709 0.08378539 -1.021982 -0.8614457 -1.3805213
-0.6626544 -0.58943 -0.38133132 -0.6120184 1.4755058 1.0647707 -1.5131186 -2.1109102
-2.8461044 -3.7901533 -0.45363343 1.6649959 -0.08328892 0.19021429 0.76346344 -0.25084144
-2.1671853 -0.2936459 -3.2753677 -2.2343912 1.074684 -0.7837974 -0.64938354 -0.6845811
-0.62008137 1.2622511 -0.01916923 -2.1989143 0.8102556 2.5616865 -0.29169348 0.4201809
1.4460083 -1.167051 0.49238306 1.5167516 -2.5228145 1.0707952 -0.052334227 -0.8138233
1.994975 -0.60236114 -0.121637546 1.0821564 -1.1176279 -1.0589262 0.47119457 1.4629463
-0.69830394 0.32283977 0.22081622 -3.258439 0.40564507 -0.685668 -3.5984547 -1.4483926
0.32868037 1.122604 -1.5727817 -0.14034574 0.40278593 -1.2800634 0.81702226 -0.14528936
1.1658776 1.0063207 -0.9109047 -0.29303083 0.1582764 0.20337589 0.1645578 -0.98825634
-2.0559094 -1.5031235 -0.320684 0.3951793 -0.9028759 0.79046696 0.83078825 -1.7823741
-1.8767595 -1.051158 0.13870291 -0.58040285 -0.45567173 1.0393425 0.32092795 0.5759798
-2.7621076 -2.3860674 -1.9027373 1.5809201 1.1228946 0.10495527 -2.0492456 -0.9672132
-0.21329752 -2.348543 -1.2213045 -1.1739681 1.0465494 0.29887286 1.9041805 1.6790376
-0.71841925 0.6459255 0.6403523 0.33661455 1.3605059 0.85973006 1.7416538 -0.69032514
-1.1862301 0.031020787 -1.1730998 0.7156691 0.6363571 -0.595929 1.8290693 0.5053974
1.9066954 -2.0494447 -0.044553526 0.3469368 -2.190829 -1.9555625 0.80317163 -0.39169264
1.4685856 -1.7737163 -0.12410305 -0.86796653 -0.5762938 0.5157399 -1.5554996 -1.2347585
0.3068591 -1.8025544 -0.9264791 -0.19502847 0.820104 0.30041754 0.42993948 -0.0093989745
-2.0344982 -1.1424607 -1.904402 -0.52562374 -1.0376096 -2.1518862 -2.6323311 -0.11311737
-0.3091535 -0.89286417 -1.1944795 -0.76964176 0.59294546 2.122481 0.5785524 -0.21147206
-1.9564718 -2.610425 0.14218153 1.7936692 1.5112286 -0.66820806 0.9039087 -0.5808487
-0.9119698 1.2228099 0.8935043 -0.9640204 -0.3303272 0.4845706 -0.4616725 1.1065261
0.79774696 -0.012730221 1.6079417 -0.15698385 -2.0670455 0.9518939 -0.24750109 -0.7503329
-1.5609802 -2.215451 -1.2695286 -2.7579129 -2.5850313 1.329104 1.3788143 -0.84829986
0.23634118 0.39900556 -1.2886136 -0.49146527 0.6066274 -1.1058582 -2.479474 0.80986744
1.2266502 0.5747125 -0.7187543 -0.6111939 -0.75217235 -0.93179274 0.1847535 0.22360809
-0.17804657 -3.051504 0.12948449 0.40388048 1.236585 1.5523736 -0.5669853 -1.873601
-1.7768704 -0.9272455 -2.517776 -0.15209393 0.061598632 -0.08366742 1.2602255 -0.7797957
0.5651043 1.4527252 -1.6655896 -0.46455702 -0.76378274 -1.2263613 -2.6996956 -1.8443034
1.783586 1.1880641 -0.1939802 1.1727812 -0.92445046 -1.1926929 -0.33750704 0.03756879
-1.2754692 0.083923854 -0.8502221 -0.85955137 0.09651651 0.6998858 -0.36270538 0.34863845
00000000: b43c 4e3e 6fbd ddbf a692 d0be fa98 da3d
00000010: ad97 ab3d 4ed0 82bf b587 5cbf ecb4 b0bf
00000020: b8a3 29bf e2e4 16bf dc3d c3be 3dad 1cbf
00000030: 60dd bc3f 684a 883f dfad c1bf 2719 07c0
00000040: 9326 36c0 df91 72c0 a442 e8be 961e d53f
00000050: 6293 aabd 89c7 423e 5772 433f 4a6e 80be
00000060: 2ab3 0ac0 c158 96be a09f 51c0 4400 0fc0
00000070: 3f8f 893f f2a6 48bf 003e 26bf b540 2fbf
00000080: a7bd 1ebf 7291 a13f ca08 9dbc 03bb 0cc0
00000090: e96c 4f3f acf2 2340 d958 95be f321 d73e
000000a0: cd16 b93f ed61 95bf a219 fc3e eb24 c23f
000000b0: cb75 21c0 d10f 893f 6a5c 56bd b956 50bf
000000c0: 575b ff3f 5734 1abf 1b1d f9bd 1a84 8a3f
000000d0: 6e0e 8fbf e58a 87bf 6a40 f13e d341 bb3f
000000e0: 0cc4 32bf 414b a53e a61d 623e 448a 50c0
000000f0: b6b0 cf3e f087 2fbf 154d 66c0 ee64 b9bf
00000100: cb48 a83e 7db1 8f3f e950 c9bf cbb6 0fbe
00000110: f539 ce3e 1ed9 a3bf 5f28 513f bcc6 14be
00000120: 7a3b 953f 1ecf 803f 0d31 69bf 2308 96be
00000130: 3513 223e c541 503e d781 283e 5efe 7cbf
00000140: 0594 03c0 5a66 c0bf b130 a4be f154 ca3e
00000150: e022 67bf 0b5c 4a3f 8aae 543f d624 e4bf
00000160: a839 f0bf 588c 86bf 2308 0e3e 4895 14bf
00000170: ce4d e9be 2d09 853f ab50 a43e 6a73 133f
00000180: 5fc6 30c0 54b5 18c0 e58c f3bf 975b ca3f
00000190: 03bb 8f3f caf2 d63d d726 03c0 499b 77bf
000001a0: aa6a 5abe 874e 16c0 b553 9cbf 9644 96bf
000001b0: 55f5 853f dd05 993e 30bc f33f b4ea d63f
000001c0: 53ea 37bf 605b 253f 21ee 233f be58 ac3e
000001d0: 0f25 ae3f 4517 5c3f 83ee de3f 26b9 30bf
000001e0: 63d6 97bf 4e1f fe3c 2228 96bf 1736 373f
000001f0: 4de8 223f ce8e 18bf f11e ea3f b961 013f
00000200: 980e f43f 1a2a 03c0 c27d 36bd b3a1 b13e
00000210: 8b36 0cc0 df4f fabf a89c 4d3f f08b c8be
00000220: 9dfa bb3f 2309 e3bf bd29 febd 0e33 5ebf
00000230: fe87 13bf 8807 043f 9c1a c7bf 910c 9ebf
00000240: a31c 9d3e 1aba e6bf bc2d 6dbf 8bb5 47be
00000250: 56f2 513f 54d0 993e 0721 dc3e 28fe 19bc
00000260: 3835 02c0 273c 92bf 72c3 f3bf 478f 06bf
00000270: 64d0 84bf 81b8 09c0 1d78 28c0 14aa e7bd
00000280: 5e49 9ebe bf92 64bf b4e4 98bf 3e07 45bf
00000290: 46cb 173f bbd6 0740 031c 143f 228c 58be
000002a0: ab6d fabf 3411 27c0 0998 113e f496 e53f
000002b0: f06f c13f af0f 2bbf 9066 673f 80b2 14bf
000002c0: da76 69bf 0985 9c3f b3bc 643f 0aca 76bf
000002d0: a620 a9be a319 f83e 5760 ecbe a6a2 8d3f
000002e0: 2539 4c3f 6b92 50bc 09d1 cd3f 60c0 20be
000002f0: 794a 04c0 52af 733f ed70 7dbe d115 40bf
00000300: 33ce c7bf f3c9 0dc0 ea7f a2bf a581 30c0
00000310: 2771 25c0 1420 aa3f fd7c b03f 2e2a 59bf
00000320: 6c03 723e 754a cc3e 4af1 a4bf 56a1 fbbe
00000330: ef4b 1b3f c38c 8dbf b4af 1ec0 7953 4f3f
00000340: e002 9d3f 5c20 133f 4800 38bf 3477 1cbf
00000350: 5e8e 40bf f889 6ebf 0630 3d3e 85f9 643e
00000360: d751 36be d74b 43c0 9597 043e 6cc9 ce3e
00000370: 6b48 9e3f 2eb4 c63f f325 11bf 28d2 efbf
00000380: 7d70 e3bf f65f 6dbf 3e23 21c0 83be 1bbe
00000390: d94e 7c3d d359 abbd 124f a13f b1a0 47bf
000003a0: adaa 103f e6f2 b93f 0a32 d5bf 6bda edbe
000003b0: 4487 43bf 68f9 9cbf d0c7 2cc0 2212 ecbf
000003c0: 8c4c e43f 7c12 983f bfa2 46be b21d 963f
000003d0: c9a8 6cbf 29aa 98bf b9cd acbe bbe1 193d
000003e0: 9342 a3bf 45e0 ab3d 28a8 59bf 8f0b 5cbf
000003f0: 73aa c53d b72b 333f 85b4 b9be bd80 b23e

conv_3.0.bias f4 [64]
0.048437893 0.0251602 -0.006130624 -0.01604653 -0.0057798885 -0.03247432 -0.030149914 -0.05161182
0.016963996 -0.012142356 -0.08032062 -0.003990051 -0.014703024 -0.031197375 0.04181966 -0.04647168
0.027650034 0.030107222 0.0051497943 -0.01874338 -0.009171106 0.076210804 -0.045426987 -0.00017976896
0.048463333 0.028301526 0.05258068 0.056819424 0.01711004 0.067190774 -0.032899927 -0.019336008
0.0807466 0.027286878 -0.02482897 0.05949865 0.00058634713 0.031237034 -0.0058655883 0.048024133
0.011014927 -0.07380246 0.05203315 0.05449699 0.07571521 -0.0011612233 -0.08299571 -0.044372637
0.020173315 -0.015422231 0.03576359 -0.001775729 -0.031753853 -0.038254652 -0.004922408 -0.051001787
-0.03315685 -0.021728517 0.03843196 -0.0085346885 0.039666247 0.010613164 0.019556854 0.049031228
00000000: d066 463d c41c ce3c 67e3 c8bb 0374 83bc
00000010: 3865 bdbb cb03 05bd f4fc f6bc ea66 53bd
00000020: 14f8 8a3c bbf0 46bc 237f a4bd f9be 82bb
00000030: f4e4 70bc a391 ffbc 184b 2b3d 1759 3ebd
00000040: 5382 e23c 6ca3 f63c 9bbf a83b b88b 99bc
00000050: 6842 16bc 6914 9c3d a611 3abd 5d80 3cb9
00000060: 7d81 463d 9ad8 e73c d75e 573d 7cbb 683d
00000070: 5b2a 8c3c 519b 893d 13c2 06bd 8c66 9ebc
00000080: 795e a53d bb88 df3c 2066 cbbc dbb4 733d
00000090: 17b5 193a cfe4 ff3c 1f34 c0bb f4b4 443d
000000a0: f477 343c bf25 97bd b620 553d 3c38 5f3d
000000b0: 9310 9b3d 3034 98ba a8f9 a9bd 15c0 35bd
000000c0: 8242 a53c 86ad 7cbc d87c 123d 94bf e8ba
000000d0: 5410 02bd e9b0 1cbd 274c a1bb 40e7 50bd
000000e0: 7acf 07bd 0100 b2bc d56a 1d3d 14d5 0bbc
000000f0: 1379 223d d6e2 2d3c b235 a03c f8d4 483d

conv_3.1.weight f4 [64]
1.8457351 2.0330617 1.709991 1.4951395 1.495911 1.7403601 1.641586 1.8757932
1.6685228 1.6312592 2.5386302 1.6646274 1.4518881 1.8316941 1.8971338 1.9749155
1.6088339 2.4045618 2.1109428 1.6351157 1.8924396 1.805814 1.6250808 2.210068
1.8594147 1.5168862 2.3298988 1.541852 1.920268 1.6203668 1.7292197 1.551636
2.5706244 1.2690217 1.8231686 1.5142914 1.8567177 1.9440866 2.255299 1.6304475
2.2830718 2.4204795 1.4900596 1.7429715 1.3371689 1.6821902 1.9169663 1.7246618
1.4579659 1.5400444 1.9173644 1.8353263 1.7280965 1.3946964 1.8963325 2.0294542
2.195438 1.3474112 1.9090589 1.5786247 1.6064677 2.0530138 1.5645212 1.4686768
00000000: 0c41 ec3f af1d 0240 fce0 da3f bb60 bf3f
00000010: 037a bf3f 1fc4 de3f 7d1f d23f fe19 f03f
00000020: 2892 d53f 1acd d03f eb78 2240 8312 d53f
00000030: 78d7 b93f f474 ea3f 48d5 f23f 08ca fc3f
00000040: 45ee cd3f 57e4 1940 b019 0740 794b d13f
00000050: 763b f23f ea24 e73f a602 d03f c171 0d40
00000060: 4d01 ee3f 5429 c23f 101d 1540 685b c53f
00000070: 58cb f53f 2e68 cf3f 1257 dd3f 029c c63f
00000080: 1c85 2440 4e6f a23f 975d e93f 4dd4 c13f
00000090: eda8 ed3f d4d7 f83f d256 1040 81b2 d03f
000000a0: d91d 1240 23e9 1a40 46ba be3f b119 df3f
000000b0: 5a28 ab3f 0252 d73f 275f f53f b8c1 dc3f
000000c0: a09e ba3f 2d20 c53f 326c f53f f9eb ea3f
000000d0: 4432 dd3f 6985 b23f 06bb f23f 94e2 0140
000000e0: 0e82 0c40 f877 ac3f 0b5c f43f 6010 ca3f
000000f0: bca0 cd3f 9464 0340 3b42 c83f 9afd bb3f

conv_3.1.bias f4 [64]
-0.9340355 -1.5256945 -1.8348696 -1.0051014 -1.3412236 -1.8435144 -1.3483818 -1.8477174
-1.3822963 -1.38661 -1.7585076 -1.3048977 -1.3646698 -1.659235 -1.7731642 -1.4759363
-1.0717237 -1.7548532 -2.3040457 -1.8779763 -1.632773 -2.177677 -1.3522964 -1.1733649
-1.4861773 -1.7063361 -1.1450756 -1.8134881 -1.4427625 -1.3809652 -1.6838045 -1.8631496
-1.3903859 -1.3840463 -1.2685579 -2.0974581 -1.0829273 -1.2634119 -2.3191712 -1.2233347
-1.7458751 -1.6748316 -1.9166433 -0.9365993 -1.4748857 -1.1794708 -1.3398405 -1.4496164
-1.6952881 -1.4725273 -2.4995441 -1.9085848 -1.9959694 -1.7843975 -2.2357225 -1.808249
-2.0239937 -1.4748483 -1.5006243 -1.4883914 -1.7333825 -2.1982648 -1.4355394 -1.6860397
00000000: f31c 6fbf f549 c3bf 02dd eabf 2aa7 80bf
00000010: 37ad abbf 48f8 ebbf c697 acbf 0182 ecbf
00000020: 16ef b0bf 707c b1bf c716 e1bf e306 a7bf
00000030: 80ad aebf d061 d4bf 0bf7 e2bf 7beb bcbf
00000040: 3e2e 89bf 089f e0bf 7c75 13c0 8761 f0bf
00000050: b5fe d0bf 0f5f 0bc0 0c18 adbf d230 96bf
00000060: 0f3b bebf 3969 dabf d691 92bf 6120 e8bf
00000070: 71ac b8bf 78c3 b0bf e886 d7bf b07b eebf
00000080: 2af8 b1bf 6e28 b1bf 1b60 a2bf c13c 06c0
00000090: 5d9d 8abf 7bb7 a1bf 4d6d 14c0 3b96 9cbf
000000a0: d678 dfbf e260 d6bf 9154 f5bf f9c4 6fbf
000000b0: 0ec9 bcbf e6f8 96bf e57f abbf 088d b9bf
000000c0: 33ff d8bf c67b bcbf 88f8 1fc0 824c f4bf
000000d0: ed7b ffbf 2367 e4bf 1416 0fc0 b474 e7bf
000000e0: 1d89 01c0 d4c7 bcbf 7514 c0bf 9c83 bebf
000000f0: 7adf ddbf 5fb0 0cc0 c1bf b7bf 26d0 d7bf

conv_3.1.running_mean f4 [64]
-24.43998 1.361315 -16.305546 -3.724685 -28.25435 2.4978826 -19.45639 -0.6874906
5.2480497 -10.390935 -20.96779 -25.111324 -2.5490708 -1.6295322 -2.6876168 -13.344046
-1.2764304 -26.14384 -24.921963 -10.341245 -16.051455 -6.465396 -9.65563 -22.226358
-12.603254 -29.27721 -33.385223 -6.294149 -5.8187428 -17.62561 -9.513943 -11.64514
-8.833929 -14.3683815 -10.687621 -7.665517 -24.706274 -21.393305 -8.735225 0.027248615
1.915074 -26.196491 -6.93112 -25.713078 3.6946619 -30.725002 -7.495374 0.97626877
-2.882146 -25.736547 -12.093213 13.904377 -1.3961387 9.680027 -14.184882 -1.1933217
-23.734179 -10.672873 -18.41712 -23.46563 -13.901259 -1.410368 -3.3021882 -2.3015814
00000000: 1485 c3c1 923f ae3f c271 82c1 3d61 6ec0
00000010: e908 e2c1 4fdd 1f40 b0a6 9bc1 62ff 2fbf
00000020: 06f0 a740 4541 26c1 09be a7c1 fee3 c8c1
00000030: fa23 23c0 8394 d0bf ea01 2cc0 3681 55c1
00000040: 1262 a3bf 9626 d1c1 2e60 c7c1 bd75 25c1
00000050: 6169 80c1 86e4 cec0 767d 1ac1 95cf b1c1
00000060: eea6 49c1 ba37 eac1 788a 05c2 ab69 c9c0
00000070: 2433 bac0 4001 8dc1 1c39 18c1 7e52 3ac1
00000080: c657 0dc1 e4e4 65c1 7f00 2bc1 ea4b f5c0
00000090: 73a6 c5c1 7d25 abc1 7bc3 0bc1 7d38 df3c
000000a0: 2521 f53f 6a92 d1c1 bccb ddc0 62b4 cdc1
000000b0: 5775 6c40 cecc f5c1 1bda efc0 c0ec 793f
000000c0: 1475 38c0 73e4 cdc1 cd7d 41c1 5478 5e41
000000d0: acb4 b2bf 64e1 1a41 47f5 62c1 c4be 98bf
000000e0: 99df bdc1 16c4 2ac1 4356 93c1 9cb9 bbc1
000000f0: 8f6b 5ec1 f086 b4bf 0d57 53c0 1c4d 13c0

conv_3.1.running_var f4 [64]
633.50543 482.65466 506.94162 1026.4802 738.056 614.6989 733.5963 468.14755
485.5995 630.3722 659.40234 728.84247 390.2361 479.90485 584.33734 630.38513
785.2779 610.67773 613.51715 439.92642 835.218 552.59827 597.4778 866.8334
758.1149 475.22104 878.2355 521.4071 586.60004 464.25192 599.1487 420.28183
685.7721 505.61838 638.6837 485.73215 853.3618 499.29028 484.5702 579.4667
568.74414 565.28595 424.9637 731.5086 475.0314 756.1564 808.7958 493.96805
623.0214 539.1671 462.9893 527.0409 601.2141 512.57855 564.8737 799.25104
473.56577 470.19223 570.93445 519.21783 724.1957 550.9578 712.17523 618.0633
00000000: 5960 1e44 cc53 f143 8778 fd43 5e4f 8044
00000010: 9683 3844 bbac 1944 2a66 3744 e312 ea43
00000020: bccc f243 d297 1d44 c0d9 2444 eb35 3644
00000030: 391e c343 d2f3 ef43 9715 1244 a698 1d44
00000040: c951 4444 60ab 1844 1961 1944 95f6 db43
00000050: f4cd 5044 4a26 0a44 945e 1544 56b5 5844
00000060: 5b87 3d44 4b9c ed43 128f 5b44 0e5a 0244
00000070: 67a6 1244 3f20 e843 84c9 1544 1324 d243
00000080: 6a71 2b44 27cf fc43 c2ab 1f44 b7dd f243
00000090: 2857 5544 28a5 f943 fc48 f243 dedd 1044
000000a0: a02f 0e44 4d52 0d44 5b7b d443 8de0 3644
000000b0: 0584 ed43 020a 3d44 ee32 4a44 e9fb f643
000000c0: 5fc1 1b44 b2ca 0644 a17e e743 9ec2 0344
000000d0: b44d 1644 0725 0044 eb37 0d44 11d0 4744
000000e0: 6bc8 ec43 9b18 eb43 cebb 0e44 f1cd 0144
000000f0: 860c 3544 4dbd 0944 370b 3244 0d84 1a44

fc.weight f4 [10, 64]
1.1002568 -3.1991467 0.70550615 -0.08861573 0.78714234 -2.076151 0.2279507 -1.4796672
-0.9050844 1.443559 -0.83059984 -0.85220975 -1.3232336 -0.89158154 -1.237042 0.118687876
1.6441822 -0.32158366 -0.40239218 -0.4928822 0.3862514 0.0048664897 -1.0109776 0.42605266
-2.2757297 0.16226768 0.52271575 0.63992745 -0.18127584 -0.06726352 1.3708154 -0.06795669
-1.1564981 -0.0916507 1.6137971 1.50291 1.0370142 1.029475 -0.06415288 -0.17298141
2.6526573 0.8348283 -2.4177647 1.3290455 -0.79885536 0.3925508 0.67118806 -1.2285752
-0.6997796 -0.12656309 -1.0076108 -3.1053073 -2.947149 -2.7598894 -1.6164064 1.3540316
-1.0483366 -0.85926837 -0.59159434 -1.1762941 1.1748006 -1.7851729 0.40107563 0.9310666
0.9101323 -0.65723085 0.71614456 -0.82869333 1.0901936 1.6164504 1.420279 -2.1003652
-1.6379654 1.023911 -0.26082835 1.8826115 1.3319364 -1.083871 -2.5445747 -2.218422
-1.6703911 -0.8493689 -3.6761372 -2.3162735 0.6965558 0.4168603 -2.181352 0.3877591
1.2841845 -3.104429 1.6475241 -0.49194616 0.333112 -0.08863623 0.29358733 -0.5053285
-0.23025534 -2.2497766 0.118935585 -3.1899626 0.80620116 -2.0623574 -3.2933385 0.32789502
-1.3893735 -0.16816387 -0.1527041 1.4099656 1.1884496 0.028675953 -0.4949191 0.42123878
-2.4962854 -1.000848 -1.7105656 0.79753256 1.0290761 1.3784153 -0.11315562 0.019651484
-0.21979688 -0.5975621 -0.05136984 0.25619945 0.56736565 0.03110262 1.7480356 0.94258285
-2.0958028 -0.32617897 -0.23336127 0.44703972 -2.0974486 -1.6440557 -1.6496593 0.6306793
0.39677894 -0.6233774 0.2967793 0.71285623 -0.578874 0.0553304 -0.9549134 -0.28485858
0.51562387 -1.5096809 0.3829702 0.6512715 0.11805583 2.0998082 -0.35065898 -0.5472065
1.9317305 -0.95193726 -3.2962148 0.9751859 0.98768777 -1.3209672 1.5633177 1.48872
-1.149493 0.40143317 -2.699511 1.0051985 -1.871754 -1.0289952 -1.6249125 -0.16870749
-1.3577679 2.598179 -0.27228984 -1.1092016 0.26929933 1.5013494 1.0986608 -1.779786
1.375918 -0.096947365 0.10297143 -0.31062576 -0.5595289 0.84180313 -2.245788 0.1008596
-2.6660163 -0.85237455 1.7049816 0.26278558 1.5764983 0.47117874 0.39767054 0.98576915
0.10254817 0.8464776 0.45995492 0.2720247 -0.9093532 0.008112278 0.66910106 1.4156109
1.7214397 0.3740578 -1.9931144 -2.1709526 1.0309421 2.0119984 0.5125007 -0.93512875
0.12759626 -1.6452752 -0.052430652 -0.6529167 -1.2988921 -2.279536 0.98372626 -4.0300393
-0.15585631 0.7440541 -2.9588299 0.82986134 -1.3867481 0.3937069 0.29269698 -0.00650248
-0.3819841 1.1234568 -0.7321212 -0.40162957 -1.0661231 1.0994877 0.08220101 -0.7688028
-1.2175944 -1.2522956 -1.3869425 -1.6858962 0.5628078 -0.91640705 -2.4318445 -1.2561342
0.22386162 -1.4943578 -2.4868064 1.5614399 -0.5512983 0.27551135 -1.9916292 0.5063994
1.459539 -0.81768763 0.8096816 -1.4016106 -0.90548587 -0.66583896 1.1235247 0.36199912
00000000: 37d5 8c3f d2be 4cc0 0d9c 343f 2a7c b5bd
00000010: 2982 493f a8df 04c0 e96b 693e bc65 bdbf
00000020: 9cb3 67bf 8bc6 b83f 31a2 54bf 6b2a 5abf
00000030: b85f a9bf b03e 64bf 6457 9ebf a112 f33d
00000040: 9074 d23f 9da6 a4be 5906 cebe 0e5b fcbe
00000050: bec2 c53e 1377 9f3b b767 81bf 9323 da3e
00000060: 8ea5 11c0 8029 263e b3d0 053f 49d2 233f
00000070: 60a0 39be 75c1 89bd e176 af3f e12c 8bbd
00000080: 2108 94bf 5db3 bbbd e790 ce3f 5b5f c03f
00000090: e2bc 843f d6c5 833f 9662 83bd 0a22 31be
000000a0: 23c5 2940 4fb7 553f a8bc 1ac0 2a1e aa3f
000000b0: c981 4cbf 6bfc c83e fbd2 2b3f f441 9dbf
000000c0: c224 33bf c199 01be 64f9 80bf 5bbd 46c0
000000d0: 179e 3cc0 07a2 30c0 68e6 cebf e850 ad3f
000000e0: e52f 86bf 03f9 5bbf ba72 17bf ce90 96bf
000000f0: de5f 963f 8c80 e4bf c959 cd3e 615a 6e3f
00000100: 6efe 683f 4840 28bf 4055 373f 3f25 54bf
00000110: 778b 8b3f d9e7 ce3f b4cb b53f 626c 06c0
00000120: daa8 d1bf 840f 833f 4b8b 85be 6af9 f03f
00000130: e47c aa3f 49bc 8abf 50da 22c0 a0fa 0dc0
00000140: 60cf d5bf 3d70 59bf d545 6bc0 d33d 14c0
00000150: 7b51 323f b76e d53e 459b 0bc0 5c88 c63e
00000160: 2860 a43f f7ae 46c0 12e2 d23f 5ee0 fbbe
00000170: a88d aa3e e986 b5bd 1451 963e 355d 01bf
00000180: 0ec8 6bbe 57fc 0fc0 8094 f33d 5928 4cc0
00000190: 3363 4e3f aafd 03c0 0fc6 52c0 dbe1 a73e
000001a0: fed6 b1bf 2633 2cbe 775e 1cbe c179 b43f
000001b0: 1e1f 983f d5e9 ea3c 0966 fdbe 9cac d73e
000001c0: 24c3 1fc0 ca1b 80bf d0f3 dabf 182b 4c3f
000001d0: c4b8 833f ea6f b03f 22be e7bd 26fc a03c
000001e0: 6f12 61be d4f9 18bf 2e69 52bd 932c 833e
000001f0: e03e 113f ecca fe3c a1bf df3f 1c4d 713f
00000200: a221 06c0 ee00 a7be 42f6 6ebe 64e2 e43e
00000210: 993c 06c0 6b70 d2bf 0928 d3bf 3374 213f
00000220: 9c26 cb3e a995 1fbf 75f3 973e bf7d 363f
00000230: 1631 14bf 21a2 623d 3475 74bf fcd8 91be
00000240: edff 033f 393d c1bf ac14 c43e bbb9 263f
00000250: 41c7 f13d 4263 0640 9389 b3be ba15 0cbf
00000260: f242 f73f 29b2 73bf 2ff5 52c0 c8a5 793f
00000270: 1bd9 7c3f 7415 a9bf cb1a c83f 618e be3f
00000280: 9622 93bf a688 cd3e cac4 2cc0 58aa 803f
00000290: a395 efbf 1db6 83bf 22fd cfbf a8c1 2cbe
000002a0: 57cb adbf 9148 2640 9369 8bbe 51fa 8dbf
000002b0: 9ae1 893e 382c c03f eba0 8c3f 07d0 e3bf
000002c0: 151e b03f 578c c6bd afe2 d23d 570a 9fbe
000002d0: 493d 0fbf 6980 573f feba 0fc0 7a8f ce3d
000002e0: 03a0 2ac0 3835 5abf d63c da3f d58b 863e
000002f0: b2ca c93f 573e f13e 799b cb3e 5e5b 7c3f
00000300: c604 d23d c2b2 583f 367f eb3e d246 8b3e
00000310: 5fcb 68bf 5ce9 043c 354a 2b3f bd32 b53f
00000320: 2358 dc3f 8184 bf3e 5f1e ffbf e3f0 0ac0
00000330: e9f5 833f 95c4 0040 3f33 033f 9964 6fbf
00000340: 98a8 023e 6198 d2bf 86c1 56bd 8d25 27bf
00000350: 1942 a6bf ebe3 11c0 7cd5 7b3f 15f6 80c0
00000360: cc98 1fbe 547a 3e3f 785d 3dc0 cb71 543f
00000370: f680 b1bf f393 c93e 61dc 953e c112 d5bb
00000380: 6c93 c3be 6fcd 8f3f 4c6c 3bbf 64a2 cdbe
00000390: b976 88bf 03bc 8c3f 0159 a83d 43d0 44bf
000003a0: 22da 9bbf 394b a0bf 5587 b1bf 72cb d7bf
000003b0: 2c14 103f a799 6abf 57a3 1bc0 01c9 a0bf
000003c0: fb3b 653e 1e47 bfbf d627 1fc0 43dd c73f
000003d0: e321 0dbf d30f 8d3e b5ed febf 64a3 013f
000003e0: 2dd2 ba3f fa53 51bf 4b47 4f3f fa67 b3bf
000003f0: eccd 67bf 6c74 2abf a8cf 8f3f f357 b93e

fc.bias f4 [10]
0.21402796 0.9350614 -0.4806472 0.12856919 -0.032290455 0.088798285 -0.4605323 0.25796574
0.24491027 -0.23799078
00000000: 252a 5b3e 2f60 6f3f 6417 f6be a4a7 033e
00000010: ff42 04bd e0db b53d e4ca ebbe 1614 843e
00000020: c2c9 7a3e dbb3 73be
