CovNet__weights.pth (torch, 89871 bytes, 8 tensors)

conv1.weight f4 [10, 1, 5, 5]
-0.067002036 -0.12046603 -0.100758806 -0.0070193326 -0.4503224 0.061801758 -0.14923984 -0.12604792
-0.036978226 0.25958568 -0.09359057 0.305635 0.5971801 0.51595974 0.08013695 0.24260369
-0.051757812 -0.3564281 0.061525423 0.0766135 0.09859457 -0.10115902 -0.0020072514 -0.36173522
0.25970298 -0.17388617 0.27358463 -0.069976605 -0.046239898 -0.30480632 -0.250742 0.22754298
0.08612222 0.32300675 -0.22132899 -0.29864794 0.24682836 -0.010347614 0.124655075 -0.27736047
0.124300204 0.12856303 -0.010246556 -0.055882785 -0.16179316 0.3542491 -0.15646777 -0.01854425
-0.07078031 -0.030241186 0.15234128 -0.029563926 0.0019303688 -0.07145203 0.24889873 -0.06645532
-0.054817308 -0.19946842 -0.051703166 0.50359327 -0.19835603 -0.007484631 0.2664592 0.5109788
-0.24285455 0.24776365 0.07572326 0.11939393 -0.2977174 -0.15656431 0.21500427 0.14250563
0.16871533 0.060335584 0.10791905 -0.15741493 0.05863032 -0.00014785037 0.14745976 -0.25085506
0.009859334 -0.06865054 -0.040372603 0.30947414 0.49901232 0.040995948 0.18561573 0.0010546619
-0.014169686 0.12877119 -0.3755534 -0.23456283 0.08788265 0.10475218 -0.2658521 -0.23928875
-0.2274577 -0.44339788 -0.26872653 -0.49674988 -0.09205148 -0.18949094 0.44473547 0.09163003
0.1417711 -0.25779206 0.2585099 0.45185637 -0.019638821 -0.27150083 -0.25743613 0.07893842
0.12702225 -0.13833602 -0.19940136 -0.16870216 0.2943841 0.2740411 -0.23640549 -0.07784694
-0.24650627 -0.0687016 0.27287373 0.3952158 0.08526101 0.1850435 -0.3320272 -0.39492807
-0.088954926 0.2552686 0.047457717 0.056885265 0.19858675 0.45848152 0.30088454 -0.106436096
0.11326643 0.31925103 -0.19462438 -0.48351714 -0.1457928 0.12471772 0.071656086 -0.15361917
-0.43871456 0.021108901 0.4637018 0.2840608 0.29799104 0.53994596 0.09387311 0.17735165
0.48529494 0.47766513 -0.089935124 0.16067907 -0.19671762 -0.21696816 0.101348504 0.16006905
0.05507783 0.18365802 -0.24965723 -0.5214609 0.23247604 -0.2903724 -0.34383544 -0.1962897
0.13296692 0.26310557 -0.12575585 0.5416242 0.41141304 -0.008643196 0.057747774 -0.043562848
0.12233188 0.265891 -0.04019973 0.21363607 0.08456622 -0.3496774 -0.44427517 -0.17168058
0.046969973 0.5454625 -0.019703625 -0.56605655 -0.061434302 0.1769987 0.18908982 0.5944624
-0.017744984 -0.16120115 0.20058648 -0.61338294 0.19736512 0.61186427 -0.038361173 -0.21600534
0.44985184 0.20210037 -0.23785262 0.010224614 0.19168712 0.22498535 -0.20710108 -0.3616853
-0.07078078 0.45167044 0.3414212 -0.008825352 -0.2980558 0.4168596 0.25661296 -0.063337706
0.5700867 0.36424702 0.058908235 -0.5518645 -0.34486908 -0.24503024 -0.17523699 -0.24498573
-0.16299716 -0.12564288 0.09484726 0.11446464 0.18371962 -0.1061486 0.17907979 0.116521314
-0.03355886 -0.28601462 -0.077195436 0.025683232 -0.3605754 -0.15409662 0.1063143 -0.13454176
-0.04567082 0.30675843 0.26527384 0.3405327 0.22779255 -0.03611194 -0.028476547 -0.16718489
-0.0861706 0.14436543
00000000: 5d38 89bd e5b6 f6bd a25a cebd 6e02 e6bb
00000010: a890 e6be d723 7d3d 54d2 18be b512 01be
00000020: 7b76 17bd 6ae8 843e 6aac bfbd 317c 9c3e
00000030: cce0 183f f015 043f d71e a43d 1a6d 783e
00000040: 0000 54bd be7d b6be 1502 7c3d 8ae7 9c3d
00000050: f3eb c93d 762c cfbd 178c 03bb 5c35 b9be
00000060: caf7 843e 370f 32be 4913 8c3e e54f 8fbd
00000070: 0c66 3dbd 930f 9cbe 4161 80be 0701 693e
00000080: d960 b03d 2461 a53e 11a4 62be 62e8 98be
00000090: 93c0 7c3e 0a89 29bc 294b ff3d 3102 8ebe
000000a0: 1b91 fe3d 07a6 033e 2ce1 27bc 59e5 64bd
000000b0: 1bad 25be 2360 b53e 1639 20be 1cea 97bc
000000c0: 44f5 90bd 5dbc f7bc 5aff 1b3e 0c30 f2bc
000000d0: 6e04 fd3a 7155 92bd 4fdf 7e3e ba19 88bd
000000e0: 1d88 60bd 7341 4cbe b3c6 53bd 7deb 003f
000000f0: d81d 4bbe a341 f5bb 576d 883e 82cf 023f
00000100: ddae 78be c1b5 7d3e cc14 9b3d ce84 f43d
00000110: 6a6e 98be 6552 20be 142a 5c3e ffec 113e
00000120: b6c3 2c3e 7222 773d aa04 dd3d 6131 21be
00000130: 5926 703d 4808 1bb9 b1ff 163e 1370 80be
00000140: 0b89 213c a898 8cbd be5d 25bd 6573 9e3e
00000150: 8b7e ff3e 5eeb 273d 0d12 3e3e 953c 8a3a
00000160: f827 68bc 98dc 033e 8948 c0be 3d31 70be
00000170: d2fb b33d 5088 d63d c41d 88be 1c08 75be
00000180: acea 68be 0c05 e3be 8696 89be 0056 febe
00000190: 7d85 bcbd ea09 42be 5eb4 e33e 86a8 bb3d
000001a0: 712c 113e 52fd 83be 695b 843e b859 e73e
000001b0: 98e1 a0bc 2802 8bbe abce 83be 77aa a13d
000001c0: 1f12 023e f5a7 0dbe df2f 4cbe 42c0 2cbe
000001d0: 83b9 963e 1d4f 8c3e 4814 72be 376e 9fbd
000001e0: 246c 7cbe 6db3 8cbd 1bb6 8b3e ba59 ca3e
000001f0: 539d ae3d 0b7c 3d3e 78ff a9be 0334 cabe
00000200: 002e b6bd 91b2 823e 0663 423d 8600 693d
00000210: 535a 4b3e 17be ea3e 8a0d 9a3e 2bfb d9bd
00000220: 3bf8 e73d df74 a33e 9d4b 47be 8f8f f7be
00000230: b54a 15be 016c ff3d 6dc0 923d 584e 1dbe
00000240: 329f e0be 93ec ac3c 536a ed3e 6b70 913e
00000250: 4892 983e e639 0a3f 8c40 c03d ac9b 353e
00000260: 9478 f83e 8690 f43e e82f b8bd 0e89 243e
00000270: 5870 49be e72c 5ebe ce8f cf3d 24e9 233e
00000280: 4a99 613d d910 3c3e 25a6 7fbe 767e 05bf
00000290: 330e 6e3e b1ab 94be 330b b0be 2b00 49be
000002a0: 7b28 083e c6b5 863e 24c6 00be e2a7 0a3f
000002b0: bba4 d23e 319c 0dbc ee88 6c3d f56e 32bd
000002c0: 2389 fa3d dd22 883e 79a8 24bd 6ac3 5a3e
000002d0: 0e31 ad3d eb08 b3be 0978 e3be 09cd 2fbe
000002e0: 9663 403d 6ea3 0b3f 7f69 a1bc 15e9 10bf
000002f0: 89a2 7bbd 263f 353e c3a0 413e b02e 183f
00000300: ee5d 91bc ea11 25be 8b66 4d3e aa06 1dbf
00000310: 151a 4a3e 23a3 1c3f 9b20 1dbd 8130 5dbe
00000320: fb52 e63e 66f3 4e3e a38f 73be 2485 273c
00000330: a149 443e 8f62 663e 4e12 54be d12e b9be
00000340: 83f5 90bd 5941 e73e c2ce ae3e 3698 10bc
00000350: c59a 98be 9f6e d53e c662 833e 33b7 81bd
00000360: 34f1 113f 967e ba3e c349 713d fe46 0dbf
00000370: ae92 b0be 35e9 7abe 5371 33be 8add 7abe
00000380: bae8 26be 87a8 00be 483f c23d 706c ea3d
00000390: ff20 3c3e 7064 d9bd b160 373e baa2 ee3d
000003a0: 0475 09bd 8270 92be a418 9ebd a465 d23c
000003b0: 579d b8be 81cb 1dbe 50bb d93d 51c5 09be
000003c0: 5311 3bbd 710f 9d3e f9d1 873e 4d5a ae3e
000003d0: 7342 693e 1dea 13bd a647 e9bc 8432 2bbe
000003e0: 367a b0bd 88d4 133e

conv1.bias f4 [10]
-1.1784184 -1.1948137 -1.2134827 -1.8172524 -1.5950452 -1.9723177 -1.9546069 -1.4810263
-1.9774721 -1.9707463
00000000: 6ad6 96bf a8ef 98bf 6753 9bbf ba9b e8bf
00000010: 712a ccbf e874 fcbf 8f30 fabf 4592 bdbf
00000020: ce1d fdbf 6a41 fcbf

conv2.weight f4 [20, 10, 5, 5]
-0.03128813 -0.039504044 -0.09481097 0.068190664 0.0064553902 -0.087380245 -0.026772186 -0.11632931
0.0010859206 -0.07298365 -0.001320916 -0.07646687 -0.07490431 -0.03702672 -0.12492554 -0.13003634
-0.14331026 -0.059908293 -0.1249141 -0.10035529 -0.10716296 -0.035455767 -0.005519336 -0.07803562
-0.11003077 -0.09933958 -0.08742748 -0.048274536 -0.06601611 0.020991722 -0.06854866 -0.10834927
-0.055265307 -0.018677827 -0.029487012 -0.11893425 -0.09478021 -0.08315318 -0.12939855 -0.0856567
-0.0842987 -0.062417652 -0.08023668 -0.061099436 -0.064445175 -0.08651348 -0.10881276 -0.041829485
-0.0665168 -0.03762392 -0.10167041 -0.05873037 -0.10995774 -0.07396203 0.0065877284 -0.13458043
-0.06699678 -0.00050513574 -0.054688163 -0.07019035 -0.05560095 -0.046529643 -0.0024907934 -0.031169973
-0.025682287 -0.10003556 -0.08109962 0.027410341 -0.113244854 -0.07426972 0.019012524 -0.038363885
0.034166202 -0.094867945 -0.08843481 -0.109773494 -0.08487881 -0.104167014 -0.03165081 -0.09999708
-0.09687769 -0.09516568 -0.102592826 0.012436861 -0.061374076 -0.062584005 -0.071251184 -0.059805494
-0.10194709 -0.05092082 -0.010737201 -0.03864619 -0.07961278 -0.06336729 -0.004600141 -0.01687147
-0.007433824 -0.048326336 -0.022608675 -0.09524047 -0.118823975 -0.13220748 -0.060924374 -0.03487807
0.06149818 -0.06076843 -0.13067603 -0.08905373 -0.02779177 -0.08764263 -0.13684848 -0.05144433
-0.097453445 -0.06425257 -0.022325875 -0.0581526 -0.11633926 -0.031835806 -0.025741616 -0.049013615
-0.080959335 -0.1553895 -0.0091628125 -0.07671186 -0.14308128 0.022726059 -0.012806034 -0.033575937
-0.09735668 -0.07558055 -0.052487046 -0.050818857 -0.03205031 -0.08261359 -0.036414176 -0.08510883
-0.038376354 -0.019124676 0.041617725 -0.02995943 -0.06051283 -0.0126719 0.018704973 -0.09777361
-0.040237863 -0.15101404 -0.054172456 -0.03857031 -0.05057171 -0.10906233 -0.0543574 -0.062902324
-0.076923646 -0.1130923 -0.07532759 -0.031198002 -0.09357615 -0.030251427 -0.13417514 -0.109768875
-0.1130678 -0.0043131425 -0.025853407 0.021135472 -0.03492437 0.036254667 -0.033954933 -0.059022207
0.004371431 -0.013722015 -0.047141325 -0.052542243 -0.032435916 -0.009712673 -0.03769377 -0.11338219
-0.013699645 -0.09474893 -0.05863144 -0.051816553 -0.08261621 0.03254998 -0.0687217 -0.058528088
-0.03337342 -0.0064717154 -0.04113992 0.013066307 -0.07729547 -0.11660673 -0.025846789 0.016585724
0.045968957 -0.04014266 -0.045973144 -0.028243765 -0.1141802 -0.07335844 -0.065480545 -0.13082328
-0.024264844 -0.13334642 0.051891476 -0.0025797344 0.0073230183 -0.014691723 -0.09777144 -0.05635872
-0.01862917 -0.10014828 -0.10174044 -0.0981077 -0.021375785 -0.0017457105 0.007384828 -0.03413843
-0.14326884 -0.043879576 -0.025620908 -0.08349389 -0.058712102 -0.123665586 -0.090692654 -0.01680337
0.036864344 -0.06558712 -0.06422794 0.012821329 -0.0054705474 -0.002286286 -0.04558697 -0.04599807
0.010960642 -0.06005163 -0.030836789 0.047460567 -0.01662437 -0.058821864 -0.079338446 0.017667633
-0.08837538 -0.11547197 -0.11348562 -0.11206576 -0.058121815 -0.11543084 -0.10933914 -0.1584191
-0.053801283 -0.10680288 -0.10242662 -0.043600727 -0.10734381 -0.015783567 -0.023687726 -0.11974781
00000000: fb27 00bd fece 21bd 412c c2bd 8ca7 8b3d
00000010: bd87 d33b 6af4 b2bd 5851 dbbc 103e eebd
00000020: 7355 8e3a 7478 95bd 9622 adba aa9a 9cbd
00000030: 6e67 99bd 54a9 17bd f6d8 ffbd 3f28 05be
00000040: edbf 12be 6662 75bd f7d2 ffbd 1387 cdbd
00000050: 4178 dbbd 113a 11bd 8cdb b4bb 24d1 9fbd
00000060: d057 e1bd 8d72 cbbd 2e0d b3bd 85bb 45bd
00000070: 7433 87bd d5f6 ab3c 3d63 8cbd 39e6 ddbd
00000080: e05d 62bd 3e02 99bc bf8e f1bc cd93 f3bd
00000090: 201c c2bd 374c aabd 0e81 04be c86c afbd
000000a0: cca4 acbd a7a9 7fbd 2153 a4bd 6743 7abd
000000b0: d5fb 83bd fb2d b1bd 39d9 debd 6555 2bbd
000000c0: f639 88bd 8a1b 1abd 9338 d0bd 428f 70bd
000000d0: 8631 e1bd 6879 97bd dfdd d73b 74cf 09be
000000e0: 9c35 89bd 166b 04ba b200 60bd f5bf 8fbd
000000f0: d2bd 63bd de95 3ebd 943c 23bb 2c58 ffbc
00000100: a963 d2bc 72df ccbd 8f17 a6bd a78b e03c
00000110: ebec e7bd b91a 98bd 27c0 9b3c 7323 1dbd
00000120: dcf1 0b3d 204a c2bd 4f1d b5bd edd0 e0bd
00000130: f1d4 adbd 8455 d5bd 48a4 01bd 45cb ccbd
00000140: cf67 c6bd 39e6 c2bd 301c d2bd fac3 4b3c
00000150: 6263 7bbd 0b2c 80bd 24ec 91bd 9bf6 74bd
00000160: a3c9 d0bd 5a92 50bd 16eb 2fbc 784b 1ebd
00000170: 060c a3bd b6c6 81bd c8bc 96bb 0936 8abc
00000180: 6f97 f3bb d6f1 45bd d435 b9bc 6f0d c3bd
00000190: fc59 f3bd 6661 07be d68b 79bd 4fdc 0ebd
000001a0: 84e5 7b3d 51e8 78bd f0cf 05be cd61 b6bd
000001b0: 91ab e3bc fb7d b3bd 0222 0cbe 4ab7 52bd
000001c0: ac95 c7bd da96 83bd c1e4 b6bc 6c31 6ebd
000001d0: 4743 eebd 4366 02bd 15e0 d2bc 80c2 48bd
000001e0: 02ce a5bd 6d1e 1fbe 9f1f 16bc 1c1b 9dbd
000001f0: e683 12be 002c ba3c 66d0 51bc ec86 09bd
00000200: f062 c7bd fac9 9abd a8fc 56bd 6f27 50bd
00000210: 3047 03bd 5031 a9bd 0827 15bd 8a4d aebd
00000220: 8630 1dbd 5aab 9cbc 5977 2a3d 7b6d f5bc
00000230: 4ddc 77bd cd9d 4fbc 2c3b 993c 883d c8bd
00000240: 75d0 24bd 6da3 1abe f0e3 5dbd e7fb 1dbd
00000250: 4824 4fbd 125c dfbd dda5 5ebd efd2 80bd
00000260: 258a 9dbd f09c e7bd 5a45 9abd f492 ffbc
00000270: daa4 bfbd d7d1 f7bc 3565 09be 81ce e0bd
00000280: 1790 e7bd 4355 8dbb 86ca d3bc 4c24 ad3c
00000290: db0c 0fbd c67f 143d 5414 0bbd 45c1 71bd
000002a0: 393e 8f3b 4dd2 60bc 4317 41bd 8936 57bd
000002b0: 86db 04bd e721 1fbc c864 1abd ec34 e8bd
000002c0: 7a74 60bc ba0b c2bd 8527 70bd 983d 54bd
000002d0: b032 a9bd 2153 053d f6bd 8cbd 26bb 6fbd
000002e0: 91b2 08bd af10 d4bb 5582 28bd 1014 563c
000002f0: 164d 9ebd 82cf eebd a5bc d3bc c9de 873c
00000300: f249 3c3d a16c 24bd 564e 3cbd 785f e7bc
00000310: 4fd7 e9bd f33c 96bd aa1a 86bd 8af6 05be
00000320: 11c7 c6bc f78b 08be 288c 543d c310 29bb
00000330: eef5 ef3b 8db5 70bc 653c c8bd 67d8 66bd
00000340: 339c 98bc 8b1a cdbd 4b5d d0bd b1ec c8bd
00000350: 451c afbc 53d0 e4ba 6dfc f13b bdd4 0bbd
00000360: 11b5 12be 12bb 33bd f0e2 d1bc d8fe aabd
00000370: 1a7c 70bd 6244 fdbd 12bd b9bd 39a7 89bc
00000380: 11ff 163d 8a52 86bd f089 83bd 8d10 523c
00000390: 4742 b3bb 84d5 15bb 67b9 3abd 7968 3cbd
000003a0: 4494 333c b3f8 75bd 6f9d fcbc 0366 423d
000003b0: d52f 88bc 32ef 70bd 327c a2bd b6bb 903c
000003c0: 27fe b4bd 917c ecbd 266b e8bd bc82 e5bd
000003d0: 2411 6ebd 0167 ecbd 33ed dfbd 9e38 22be
000003e0: bc5e 5cbd 78bb dabd 0cc5 d1bd ad96 32bd
000003f0: 12d7 dbbd 8a4c 81bc c30c c2bc 573e f5bd

conv2.bias f4 [20]
-0.12044691 -0.103480764 -0.06648622 -0.56997794 0.48085272 -0.07713028 0.24323328 -0.977629
-1.0051585 -0.1499488 -0.2322508 0.06664808 -0.09567271 0.23488781 -0.78591746 0.10837531
0.28274488 -0.1516156 0.51679265 -0.072321616
00000000: dfac f6bd b9ed d3bd ed29 88bd 13ea 11bf
00000010: 5432 f63e 7bf6 9dbd 2512 793e e545 7abf
00000020: 09a9 80bf 2e8c 19be 27d3 6dbe ca7e 883d
00000030: 0ef0 c3bd 6e86 703e e331 49bf e0f3 dd3d
00000040: f0c3 903e 1f41 1bbe 864c 043f 5b1d 94bd

fc1.weight f4 [50, 320]
-0.05815647 -0.06027689 -0.0007481384 -0.034373295 0.01782978 -0.09815242 0.097876996 0.011830355
-0.08237239 -0.028162839 0.13293366 -0.030946815 0.010668677 -0.055779196 0.010794476 -0.045325086
-0.12911163 -0.21865757 0.036213394 0.08858409 -0.04450106 0.016732773 0.11020926 0.07677755
0.08668989 -0.115420625 0.10804994 0.07565575 0.055657346 -0.096614495 0.070958935 0.08056421
-0.6120944 -0.178281 -0.7976467 -1.3202752 0.18583402 0.05731465 0.5435386 -1.4130237
-0.3075067 -0.14844936 -0.29244784 -0.11676202 0.02726258 0.17443267 0.17088236 0.08899308
0.2572125 -0.15551239 -0.083699025 -0.20778084 0.18425284 -0.07769002 0.009765656 -0.16555984
-0.015593923 -0.08032116 0.21261565 -0.038893323 0.022981757 0.05628338 0.28116137 -0.16137727
-0.36472088 -0.14854053 -0.57172984 -0.64639086 -0.7805486 -0.25316468 0.21356489 -1.5814012
0.19332814 -0.2859071 1.5635779 -0.8623704 0.99787086 0.16682512 0.6688842 -0.009194075
-0.9108785 -0.5594138 0.0035339023 -1.0627279 -0.5204906 0.050583504 0.49686983 -0.87448156
0.11193339 -0.19113383 0.37420776 -1.0135728 0.2966209 -0.20389007 -0.2671343 -0.13911927
-0.064952 -0.22831209 -1.8635898 -1.0927507 -0.20468569 -0.5149278 -0.17907286 -0.15414101
-0.29726365 0.48897094 0.15110998 0.27201825 -0.7355384 0.05768834 0.4549075 0.3776103
-0.3694242 0.08757123 0.14615247 0.7337661 0.23695605 -0.2945393 -0.9556527 -0.1866201
0.6746897 0.045670062 -0.96245974 0.17016436 0.22000755 0.13289382 -0.49367708 0.016889652
0.32426283 -0.14580582 0.16973619 -0.20563252 -0.3859088 -0.13183697 0.38779557 0.09021498
-0.26698208 -0.14150113 -0.177268 -0.33060315 -0.4710424 -0.25256073 -0.35120222 -0.27534485
0.046382666 0.044003967 0.06997453 0.11139682 0.065905996 0.043998234 0.1041902 0.03454523
-0.044883672 0.06108655 0.0764819 0.09276943 0.08544012 0.056094535 0.084038384 0.06850911
-0.7341686 -0.080178134 0.114196844 -0.71559507 -0.33709553 -0.12127247 0.2788125 -0.44509616
0.021693394 -0.04548535 -0.359319 -0.21593073 0.16177589 -0.09127039 -0.14690086 0.10487629
-0.23600447 -0.044685543 -1.2753206 -1.1587919 0.14387827 -0.53355867 -0.36361185 -0.059835326
0.22315244 -0.18752067 0.11554207 0.13728262 0.016895639 0.28242195 0.80383086 0.27847093
-0.5370696 -0.41869646 0.038755916 -1.0852993 -0.08790352 -0.5933868 0.31437874 -0.30608442
-0.15637267 0.0040067295 0.83611345 -0.015433257 -0.10379517 -0.6238186 0.4227195 0.016598195
0.07993429 -0.19119687 -1.7019958 0.15488704 0.39347744 -0.71714056 0.08312904 0.5208426
0.10278748 -0.4014442 0.5170639 -0.055058558 0.7085503 1.0604837 -0.05123809 -0.47928226
0.55327123 -0.017606271 -0.19241872 -0.3803967 -0.067681536 0.04000242 -1.2821662 -0.88627607
0.46521825 0.19197921 -0.61938906 -0.8679789 0.34838098 0.30251187 -0.63105917 -0.55582273
-0.26094082 -0.5720254 -1.3702992 -1.4253194 0.51253825 0.26841754 0.20830984 0.032324884
0.22242928 -0.20650674 0.27790645 0.58812636 -0.62005424 -0.057396606 0.4548234 0.36670497
00000000: 7b35 6ebd e6e4 76bd b81e 44ba 03cb 0cbd
00000010: c20f 923c 2304 c9bd bc73 c83d 1bd4 413c
00000020: dbb2 a8bd c1b5 e6bc c31f 083e 2d84 fdbc
00000030: adcb 2e3c ba78 64bd 50db 303c cca6 39bd
00000040: d735 04be c5e7 5fbe 7f54 143d 936b b53d
00000050: be46 36bd 2b13 893c 64b5 e13d 8c3d 9d3d
00000060: 788a b13d a661 ecbd 4949 dd3d 67f1 9a3d
00000070: f5f8 633d d2dd c5bd eb52 913d d9fe a43d
00000080: 38b2 1cbf 4b8f 36be 9332 4cbf c7fe a8bf
00000090: 464b 3e3e c4c2 6a3d 5825 0b3f f6dd b4bf
000000a0: 8571 9dbe 1c03 18be b9bb 95be ed20 efbd
000000b0: c655 df3c 7a9e 323e c9fb 2e3e 0142 b63d
000000c0: 5bb1 833e a43e 1fbe 656a abbd 80c4 54be
000000d0: c7ac 3c3e f21b 9fbd 2100 203c 8588 29be
000000e0: a77d 7fbc 6c7f a4bd ebb7 593e 9b4e 1fbd
000000f0: 3d44 bc3c 6789 663d 62f4 8f3e 1540 25be
00000100: b2bc babe 021b 18be e35c 12bf df79 25bf
00000110: 08d2 47bf cd9e 81be c1b0 5a3e 5b6b cabf
00000120: d0f7 453e 6a62 92be 5223 c83f 4ec4 5cbf
00000130: 7774 7f3f 34d4 2a3e ff3b 2b3f bfa2 16bc
00000140: 552f 69bf be35 0fbf 0b99 673b 7807 88bf
00000150: df3e 05bf a630 4f3d b965 fe3e 06de 5fbf
00000160: 553d e53d 96b8 43be 2998 bf3e c1bc 81bf
00000170: b2de 973e 8fc8 50be d4c5 88be 4875 0ebe
00000180: 8e05 85bd a5ca 69be 1c8a eebf 41df 8bbf
00000190: 2099 51be 4fd2 03bf e05e 37be 24d7 1dbe
000001a0: f132 98be 665a fa3e 93bc 1a3e fa45 8b3e
000001b0: 3f4c 3cbf 9c4a 6c3d a3e9 e83e 2356 c13e
000001c0: 2b25 bdbe 8c58 b33d fea8 153e 18d8 3b3f
000001d0: 9ba4 723e dbcd 96be a8a5 74bf 5719 3fbe
000001e0: 77b8 2c3f 8810 3b3d c363 76bf 913f 2e3e
000001f0: a949 613e 5115 083e 3ec3 fcbe 2b5c 8a3c
00000200: c705 a63e 1f4e 15be 53cf 2d3e 5591 52be
00000210: d795 c5be 4500 07be 248d c63e a2c2 b83d
00000220: e0b1 88be ace5 10be be85 35be d144 a9be
00000230: 782c f1be a44f 81be c7d0 b3be 00fa 8cbe
00000240: c0fb 3d3d 813d 343d ce4e 8f3d 0424 e43d
00000250: b9f9 863d 7e37 343d ac61 d53d 4d7f 0d3d
00000260: f1d7 37bd e435 7a3d 8ba2 9c3d e6fd bd3d
00000270: 3bfb ae3d 62c3 653d 511c ac3d 814e 8c3d
00000280: 79f2 3bbf 6f34 a4bd 09e0 e93d 3d31 37bf
00000290: c997 acbe b35d f8bd 83c0 8e3e a5e3 e3be
000002a0: 58b6 b13c d94e 3abd a9f8 b7be f21c 5dbe
000002b0: 94a8 253e f8eb babd 2e6d 16be 61c9 d63d
000002c0: 28ab 71be 3008 37bd b53d a3bf 4b53 94bf
000002d0: d354 133e 4d97 08bf 552b babe e315 75bd
000002e0: 1382 643e 6b05 40be 52a1 ec3d d193 0c3e
000002f0: b968 8a3c 9c99 903e dcc7 4d3f be93 8e3e
00000300: 657d 09bf 625f d6be 86be 1e3d 16eb 8abf
00000310: c306 b4bd 33e8 17bf 40f6 a03e 19b7 9cbe
00000320: 2820 20be e24a 833b 880b 563f c6db 7cbc
00000330: 9092 d4bd 93b2 1fbf b16e d83e f0f8 873c
00000340: 97b4 a33d 1dc9 43be 00db d9bf b59a 1e3e
00000350: e075 c93e 8696 37bf 8f3f aa3d f155 053f
00000360: 3e82 d23d 188a cdbe 4d5e 043f 1585 61bd
00000370: 8d63 353f eebd 873f 08df 51bd 7c64 f5be
00000380: 2fa3 0d3f 073b 90bc 6a09 45be 5bc3 c2be
00000390: 9e9c 8abd 94d9 233d 061e a4bf fde2 62bf
000003a0: 1631 ee3e 3396 443e 4890 1ebf dd33 5ebf
000003b0: fe5e b23e d6e2 9a3e 188d 21bf 664a 0ebf
000003c0: 099a 85be 4270 12bf f765 afbf de70 b6bf
000003d0: b535 033f 066e 893e 2d4f 553e 1967 043d
000003e0: 80c4 633e 8176 53be c149 8e3e 738f 163f
000003f0: e0bb 1ebf b418 6bbd 9dde e83e c1c0 bb3e

fc1.bias f4 [50]
0.06948316 0.79566836 0.36294073 -0.76102537 0.068053715 0.1881247 -0.32418638 0.19690609
-0.46459243 -0.14956112 0.29240325 0.65411 -0.23335491 0.20498191 0.4123054 0.021105785
0.92945886 -0.6558682 0.46037418 -0.04451403 -0.12023294 0.03448962 -0.019820413 0.57869595
-0.056382403 0.015507267 -0.4795407 0.43527678 0.09347897 -0.21342288 0.30337566 0.22802822
0.30207536 -0.39687264 0.8147437 -0.26843196 0.600064 0.24026345 0.2514777 -1.5024164
0.3007985 0.64289904 0.27845076 -0.3837018 0.53907233 0.19107668 -0.2800992 -1.8471164
-0.28027272 -0.19582902
00000000: 304d 8e3d ecb0 4b3f 5ed3 b93e 8fd2 42bf
00000010: bf5f 8b3d c3a3 403e c2fb a5be c0a1 493e
00000020: 0fdf edbe 8d26 19be e1b5 953e c173 273f
00000030: 97f4 6ebe c7e6 513e b219 d33e 0ae6 ac3c
00000040: 04f1 6d3f fae6 27bf 2ab6 eb3e 5854 36bd
00000050: b03c f6bd fd44 0d3d 6b5e a2bc 6b25 143f
00000060: 3cf1 66bd 3112 7e3c 5c86 f5be 99dc de3e
00000070: e771 bf3d 878b 5abe 0e54 9b3e 3b80 693e
00000080: 9fa9 9a3e e432 cbbe 0b93 503f ea6f 89be
00000090: cb9d 193f 9f07 763e afc1 803e 2e4f c0bf
000000a0: 4302 9a3e 0895 243f 1991 8e3e 9074 c4be
000000b0: a500 0a3f 9ba9 433e 2a69 8fbe 4f6e ecbf
000000c0: e87f 8fbe 6787 48be

fc2.weight f4 [10, 50]
0.26302174 -0.25198713 0.18240078 -0.0926691 -0.2168419 -0.11015421 -0.012252229 -0.29757193
-0.12073222 -0.46752602 -0.11214128 -0.42857015 -0.5642652 -0.02438193 0.2210228 0.1631814
0.16039817 0.049157787 0.20565228 0.118114725 -0.1714953 -0.29346532 -0.40373522 -0.35950318
-0.34554127 -0.6943164 -0.1531182 -0.28543982 -0.120506994 -0.6293758 -0.19725017 0.26917297
0.25662318 0.309798 -0.38907802 0.033350002 -0.20866716 -0.19769603 -0.10777362 -0.27612272
-0.11168131 -0.39952937 0.18578416 -0.39403704 -0.30066928 -0.3960603 -0.055565756 -0.29208177
-0.2331592 -0.11469126 -0.50291646 0.12200504 -0.38335887 -0.28872356 -0.45277193 0.15648763
0.045872133 0.12222314 -0.05203804 -0.5702655 -0.3178335 0.19972347 -0.30392733 -0.1517182
-0.049459435 -0.54095346 0.1239366 -0.5028153 -0.34483397 -0.49905196 -0.01332376 -0.08023666
-0.4754194 0.15336059 0.07562 -0.19112651 -0.61410457 0.045981873 -0.14898089 0.126808
0.041490026 -0.34793633 -0.36753875 -0.13667762 0.22678357 -0.27354175 -0.28552973 -0.10680444
0.14125985 0.071200214 -0.20896968 -0.12975103 -0.04816587 -0.6600272 0.1870871 -0.23183118
-0.56739175 -0.23005393 -0.31894574 -0.21473266 -0.10378856 -0.095951945 -0.040347777 -0.1271975
-0.03456963 0.03308852 0.2198674 -0.09089711 0.08136017 -0.07112263 -0.31682616 0.19664204
-0.10016866 0.14903829 0.24359123 -0.13776399 -0.1798931 -0.09245244 -0.18852489 -0.1045623
-0.092931546 0.18084182 -0.22121394 0.0713171 -0.20435286 -0.13272834 -0.11451809 -0.0411642
-0.33893615 -0.048635006 -0.08119115 -0.17854835 -0.20796926 -0.32605144 0.0141094895 0.067859925
-0.18514608 -0.027227793 0.104403794 -0.09870418 0.18602678 0.016832897 -0.3044757 -0.14788379
0.17571346 0.14330333 -0.050973915 -0.057325665 -0.1655825 0.19066423 0.03150609 -0.18389963
0.2110839 -0.17491335 0.08160436 -0.30924204 -0.011870846 0.1459592 -0.179539 0.0044589583
-0.08889891 0.21376348 -0.0064479695 -0.012764946 -0.020335834 -0.2593771 -0.28842908 0.12327297
-0.02404335 -0.07184535 0.11079863 0.14595275 -0.12743337 -0.22846712 -0.12816416 -0.100208946
0.18216845 -0.12981202 0.06629286 -0.22694929 -0.094015576 -0.22303545 -0.13232976 -0.03507493
0.21349217 0.09372785 0.16126677 0.22778553 -0.0690698 -0.57280135 0.084907405 0.26470256
-0.21432672 0.18072739 -0.063178696 0.25781858 -0.2781492 -0.21204129 0.14622521 0.073541895
-0.045298196 0.06481643 -0.03588762 0.23689632 -0.1765289 0.0875821 -0.028750695 -0.15220857
0.02119411 0.02225691 0.06325624 -0.18365774 0.16986091 -0.2416861 0.075361945 0.08934438
-0.21755242 -0.3402633 -0.19522022 -0.12847066 -0.45947903 -0.053406805 0.22388987 0.27289966
-0.30314657 0.13914792 -0.2043123 -0.015111736 -0.053746313 -0.13497698 0.20082812 0.01211692
-0.19155595 -0.065974884 -0.12510629 0.009390846 -0.30877566 0.23455456 0.13988431 -0.15699996
-0.25080615 0.109637894 -0.39789805 -0.13706319 -0.19205779 -0.2808738 0.0073979357 -0.20860566
0.23210092 -0.30319592 -0.22256666 -0.09836786 -0.07101798 -0.19180007 0.21563181 -0.13392717
00000000: c9aa 863e 7504 81be 45c7 3a3e 4cc9 bdbd
00000010: ce0b 5ebe 8898 e1bd 93bd 48bc 595b 98be
00000020: 7442 f7bd 925f efbe 54aa e5bd 8c6d dbbe
00000030: af73 10bf 9dbc c7bc cd53 623e 0619 273e
00000040: 6b3f 243e ad59 493d 8396 523e 22e6 f13d
00000050: 779c 2fbe 1641 96be 62b6 cebe cd10 b8be
00000060: c9ea b0be b8be 31bf 04cb 1cbe 2b25 92be
00000070: 5fcc f6bd c61e 21bf f3fb 49be 0ad1 893e
00000080: 1d64 833e d89d 9e3e 3c35 c7be 039a 083d
00000090: d8ac 55be d470 4abe 6ab8 dcbd f55f 8dbe
000000a0: 2cb9 e4bd 1d8f ccbe 343e 3e3e 39bf c9be
000000b0: 53f1 99be 6ac8 cabe eb98 63bd be8b 95be
000000c0: 49c1 6ebe 40e3 eabd 22bf 00bf c7dd f93d
000000d0: 9d47 c4be 93d3 93be b9d1 e7be 4b3e 203e
000000e0: 6be4 3b3d 2050 fa3d d725 55bd ebfc 11bf
000000f0: 13bb a2be 4f84 4c3e 5d9c 9bbe 045c 1bbe
00000100: fa95 4abd ed7b 0abf 79d2 fd3d 81b8 00bf
00000110: 148e b0be bd83 ffbe e64b 5abc 1e53 a4bd
00000120: 2c6a f3be 8f0a 1d3e a9de 9a3d abb6 43be
00000130: f535 1dbf 7d57 3c3d 728e 18be f5d9 013e
00000140: 72f1 293d b624 b2be 0a2e bcbe 38f5 0bbe
00000150: f439 683e aa0d 8cbe f430 92be 49bc dabd
00000160: 6ca6 103e 6bd1 913d 26fc 55be 74dd 04be
00000170: 9349 45bd 8bf7 28bf c393 3f3e 2765 6dbe
00000180: 9640 11bf 4293 6bbe db4c a3be e1e2 5bbe
00000190: 198f d4bd 7482 c4bd b643 25bd 1040 02be
000001a0: e298 0dbd d487 073d eb24 613e 4428 babd
000001b0: 29a0 a63d bea8 91bd 0a37 a2be 885c 493e
000001c0: 3a25 cdbd 7e9d 183e fb6f 793e 0112 0dbe
000001d0: e635 38be b457 bdbd ab0c 41be c224 d6bd
000001e0: e552 bebd 992e 393e e885 62be b30e 923d
000001f0: e041 51be f0e9 07be 7688 eabd cb9b 28bd
00000200: 0a89 adbe 8035 47bd 8c47 a6bd 61d5 36be
00000210: e5f5 54be 37f0 a6be 7d2b 673c 25fa 8a3d
00000220: ef96 3dbe d20c dfbc a8d1 d53d 6b25 cabd
00000230: ce7d 3e3e 25e5 893c 3de4 9bbe d96e 17be
00000240: 3bee 333e 1cbe 123e 06ca 50bd 51ce 6abd
00000250: 758e 29be 7c3d 433e 880c 013d 2f50 3cbe
00000260: 6126 583e 7c1c 33be 3020 a73d f954 9ebe
00000270: f07d 42bc 5476 153e 12d9 37be 741c 923b
00000280: a210 b6bd d0e4 5a3e 7d49 d3bb 1024 51bc
00000290: 5697 a6bc 13cd 84be faac 93be 8a76 fc3d
000002a0: 8ff6 c4bc a823 93bd 64ea e23d a374 153e
000002b0: e57d 02be 49f3 69be 773d 03be 593a cdbd
000002c0: 5e8a 3a3e 71ed 04be 8dc4 873d 6565 68be
000002d0: 3d8b c0bd 6863 64be 7481 07be bbaa 0fbd
000002e0: b19d 5a3e 63f4 bf3d 1e23 253e 9c40 693e
000002f0: 7874 8dbd 1ca3 12bf efe3 ad3d 1887 873e
00000300: 7778 5bbe 9a10 393e d563 81bd cc00 843e
00000310: 9269 8ebe 5a21 59be 10bc 153e 229d 963d
00000320: 9a8a 39bd 7abe 843d e6fe 12bd f394 723e
00000330: fec3 34be 3e5e b33d 9486 ebbc 90dc 1bbe
00000340: 459f ad3c 2054 b63c 7d8c 813d c610 3cbe
00000350: 05f0 2d3e 907c 77be 5d57 9a3d 30fa b63d
00000360: 10c6 5ebe fe36 aebe cfe7 47be d08d 03be
00000370: d640 ebbe 18c1 5abd 6343 653e 81b9 8b3e
00000380: 0736 9bbe cb7c 0e3e 3e37 51be 3797 77bc
00000390: 1825 5cbd 6837 0abe e3a5 4d3e 0c86 463c
000003a0: 3e27 44be d71d 87bd dd1b 00be 10dc 193c
000003b0: d817 9ebe 122f 703e d53d 0f3e 99c4 20be
000003c0: aa69 80be d589 e03d 4bb9 cbbe 4b5a 0cbe
000003d0: ccaa 44be b1ce 8fbe 626a f23b b99c 55be
000003e0: ddab 6d3e 7f3c 9bbe 84e8 63be 1775 c9bd
000003f0: e071 91bd 3d67 44be 96ce 5c3e 3424 09be

fc2.bias f4 [10]
0.52750146 0.91123617 -0.086394526 -0.23492788 -0.4607559 -0.28514066 -1.0190346 -0.30182704
0.7199068 -0.119711064
00000000: 560a 073f c646 693f 9def b0bd ef90 70be
00000010: 33e8 ebbe f5fd 91be ba6f 82bf 1389 9abe
00000020: d04b 383f 132b f5bd
