FullNet__weights.pth (torch, 439319 bytes, 6 tensors)

fc1.weight f4 [128, 784]
00000000: 39ad a03d 1169 353d 5d9e 593d df51 9d3d
00000010: 9e84 d83c 96da a63d 12e2 573d 2633 a03d
00000020: 2b28 853d e110 643d 9a46 8f3d bd31 7d3d
00000030: e2b3 953d 56f8 3c3d f04f 6b3d ddce 683d
00000040: 2597 853d b564 753d 89ed ba3d 0ac0 913d
00000050: 0380 3f3d 78a0 1d3d 3f75 5d3d f7e0 363d
00000060: c919 473d 6efb 7c3d 5f97 a63d a1be a23d
00000070: bef3 cd3c e254 a83d 1b6c 8f3d 6f5e c03d
00000080: 7944 ab3d fa61 e13c b6c6 d53c 616b 2f3d
00000090: 6737 bb3d 719c 5d3d 7f4a 9a3d 43ff 313d
000000a0: 06c2 c23d a215 383d 28d7 b13d c5b5 773d
000000b0: 72e9 283d d995 a03d 8d53 283d 1e80 903d
000000c0: 9abc 4b3d 98f0 653d 4eae d23c 3d3b 303d
000000d0: baad a23d 466b 523d bdd7 c33d 899e b53d
000000e0: ce20 6f3d a355 143d b187 a73d 71b0 913d
000000f0: 706a 173d 947f aa3d db64 a73d dddb bb3d
00000100: d5f9 233d f5e5 5d3d d924 733d ffab 853d
00000110: 77f5 063d 8e2b 0e3d 64c7 a23d c9ac 533d
00000120: 98b7 9e3d 4851 7e3d 4101 933d 7512 8b3d
00000130: 6295 953d 1c3f 9f3d 6c00 dd3c 2ece 9f3d
00000140: f11e 0f3d 979a 073d c1df 7e3d b50c 5d3d
00000150: 87f2 a53d 2d42 213d 68dd e73c 4b38 b03d
00000160: 4849 603d e820 a43d cc80 923d 1e48 083d
00000170: dfae 893d a08e 8c3d e706 143d 5e91 303d
00000180: 61ed 933d cc16 883d 34c0 373d 2bb2 493d
00000190: e4fa bd3d e5e9 5a3d fb39 a43d f2a8 9a3d
000001a0: e96a 173d ea24 f33c a532 c13d c89d 7d3d
000001b0: 0b20 ad3d 7525 8a3d 6283 923d 9e9f b13d
000001c0: 0d58 c03d c4e7 143d 3f22 843d 7c92 b13d
000001d0: dff9 af3d 8f6d a83d a71b 0c3d 05a3 0c3d
000001e0: 1c82 1d3d c72c 843d 6f58 c8bc 1b30 a9bd
000001f0: 07f6 a13d f201 253d c4df d83c bce2 563d
00000200: c821 a53d c9e4 be3d 6f21 1b3d aedc 8a3d
00000210: c719 ba3d 0a75 ab3d b892 a83d 6df7 ae3d
00000220: bc40 a93d a0e1 8d3d d4f1 113d 2844 f63c
00000230: 56f2 323d 82f1 643d c54f 1c3d 98bf 953d
00000240: 2aa0 913d 80da 543d c219 973d 96a0 923d
00000250: d1a4 a73d 983b ac3d 2ac1 93bd 1011 cebc
00000260: 7ffa 643d 10bd 703d 2ec4 d73c 4d05 aabd
00000270: 0eb7 a5bd e944 9abd 3f43 ae3d 532c 463d
00000280: 71a9 083d 9121 973d 3068 923d de5c aa3d
00000290: 6b47 2a3d e7d8 8a3d ecb8 403d 6f1c 553d
000002a0: 6566 013d 734e 333d 382d 493d 6d44 9a3d
000002b0: eb59 883d 6a0e 8d3d 3bfe c33d 7b46 c23d
000002c0: 02dc ac3d 9241 71bd 9192 adbd ea3c b23d
000002d0: 2d3f 8dbd afe6 80bd 8900 babd 2e70 89bd
000002e0: b82a aabd d31d dfbc 1b39 babd bbff b3bd
000002f0: c7fe 703d 30e1 263d 0a29 953d 2cab 3d3d
00000300: e844 313d b043 7e3d d0ef af3d b013 0f3d
00000310: 5156 9d3d 93fa a93d 7689 c23d 7e96 0f3d
00000320: 0ab4 8c3d 68cf 093d 376f b93d f537 3d3d
00000330: a1d8 1dbd 7e9a 71bd 478a 6a3d a635 713d
00000340: ca17 5dbd c004 31bd 7984 5ebd 515a 49bd
00000350: 6fc8 bcbd 9767 0bbd 84e0 ecbc c01d fabc
00000360: 0ed7 09bd efaa afbd e7bf 3f3d 117b bb3d
00000370: 2f8f 063d b658 bd3d b4ec 023d cfee 0e3d
00000380: 2bbf 9e3d 81df 0c3d 9e76 543d 0c33 b03d
00000390: 7aec b43d c229 c03d b347 583d 3fd4 b3bd
000003a0: afe0 cbbc bd8d 8abd 99b4 393d 4050 52bd
000003b0: 1124 aebd 8ad4 15bd 574c 1abd da06 b5bd
000003c0: 2511 b7bd aa65 81bd ab89 38bd b537 7abd
000003d0: 3514 a0bd a1a1 72bd baf4 d83c d596 0e3d
000003e0: a199 143d 7e39 b73d f576 bb3d 144a 443d
000003f0: ea89 7c3d e29b 9b3d 4dc0 833d a3b8 2c3d
0.078455396 0.044289652 0.053129543 0.07681631 0.026430424 0.08147161 0.05270583 0.07822256
0.06501802 0.05568016 0.06995888 0.061815012 0.073097005 0.04613527 0.05744928 0.056837905
0.06522969 0.059910495 0.091273375 0.07116707 0.04675294 0.038483113 0.054066893 0.044648137
0.048608575 0.06176322 0.081343405 0.07946516 0.02514064 0.08219315 0.07003041 0.09393012
0.083626695 0.02751254 0.02609573 0.042827014 0.091414265 0.054104272 0.0753374 0.043456327
0.09509663 0.044942506 0.08683616 0.060476083 0.041238256 0.07841081 0.041095305 0.070556864
0.04974041 0.05613765 0.02571788 0.043025244 0.07943292 0.051371835 0.09562633 0.08868129
0.058380894 0.036214482 0.08180178 0.07113732 0.03696674 0.08325115 0.081735335 0.09172795
0.04003318 0.054174382 0.059361313 0.06526946 0.032948937 0.034709506 0.07948187 0.051678453
0.077498615 0.062089235 0.071779735 0.0679063 0.07303883 0.07775709 0.02697774 0.078029975
0.034941617 0.033106413 0.062225107 0.053967196 0.08102899 0.03936975 0.028303817 0.08604487
0.054757386 0.08014089 0.07153472 0.0332719 0.06722807 0.06863141 0.036139395 0.043107383
0.07223011 0.06644973 0.044861034 0.04924218 0.09276369 0.053445715 0.080188714 0.07551755
0.03696719 0.029680688 0.09433488 0.06191805 0.08453377 0.067454256 0.071539655 0.08673023
0.09391794 0.03635384 0.064518444 0.08670518 0.08592581 0.08224022 0.03420606 0.034335155
0.03845416 0.06453853 -0.02445623 -0.082611285 0.07908254 0.04028506 0.026473887 0.052462325
0.08063084 0.09320981 0.03787368 0.067803726 0.09086948 0.08371933 0.082311094 0.085432865
0.082643 0.069278 0.035631016 0.030061796 0.04368814 0.055894382 0.03816201 0.07311934
0.07110627 0.05196619 0.0737796 0.071595356 0.08185733 0.08409804 -0.072145775 -0.02515462
0.055902954 0.058774054 0.026338663 -0.08301792 -0.080915555 -0.07532675 0.0850892 0.048382115
0.033364717 0.07379449 0.071487784 0.08318494 0.041572016 0.06779652 0.047051355 0.05202907
0.03159179 0.043775987 0.04911539 0.075325824 0.066577755 0.06887515 0.09569975 0.09486099
0.08440401 -0.058900423 -0.08475221 0.08703025 -0.068968154 -0.062939994 -0.09082133 -0.0671085
-0.08308929 -0.027235901 -0.09092923 -0.08789011 0.058836725 0.0407421 0.07283218 0.04630582
0.043278605 0.06207627 0.085906625 0.034930885 0.07682479 0.08299746 0.09498875 0.03505563
0.06870277 0.033645064 0.09054416 0.046195943 -0.03853667 -0.058985226 0.057260778 0.058889054
-0.053977765 -0.04321742 -0.054325555 -0.049158398 -0.09217917 -0.034034338 -0.028915651 -0.030531764
-0.033652358 -0.08577525 0.04681387 0.091543324 0.032851394 0.09245436 0.03196402 0.034895714
0.07751306 0.034392837 0.051870935 0.086034864 0.08834167 0.09382965 0.052802753 -0.08780717
-0.02488741 -0.06765316 0.045338247 -0.051346064 -0.08502973 -0.036579646 -0.03767046 -0.088391975
-0.08938817 -0.06318219 -0.045053165 -0.061088283 -0.07816354 -0.059236173 0.026483882 0.034811813
0.036279324 0.08946513 0.09153549 0.04792221 0.061654963 0.07598092 0.06433163 0.04216827

fc1.bias f4 [128]
00000000: 3b46 aebd e207 59bd 15fc 46bd a4fc 87bd
00000010: de94 60bd e1e7 27bd a851 413c 35ae cfbc
00000020: 9d88 82bd 8ad6 f83d 7329 61bd 1ba9 183d
00000030: 6d82 1abd e016 59bd 0ad6 76bd ac5f d4bc
00000040: 8d91 a4bd d748 c3bd c591 09bd c7d1 53be
00000050: ee48 3fbe 426c 98bd ecd0 60bd 7b53 04bd
00000060: d090 e8bc db5e 62bd b506 94bd 4497 80bd
00000070: dc6f 8cbd 348c 84bd 757e cbbc 2015 9b3d
00000080: fbdf 37bd ce0c 4bbd 445b 93bd 2499 68bd
00000090: 2484 6bbd e48c 99bd 7d8d 81bd ac50 71bd
000000a0: 6d00 22bd b1b2 5bbd ae90 f6bc 5e9c a4bd
000000b0: 8840 31bd 12d4 2ebd 04c1 40bd 956c 33bd
000000c0: c575 67be 4553 86bd 4154 88bd ea2c 75bd
000000d0: 48f1 93bd 1c78 34bd db64 c63b ee22 49bd
000000e0: 3ea2 f3bc 7436 85bd 05d8 85bd 2dfc 24bd
000000f0: 04e7 32bd c11b 84bd 6212 2bbd 3c79 e5bd
00000100: 5b25 93bd 2ad5 30bd c84a 30bd 8805 2abd
00000110: 24fd 17bd bc37 4bbd b81d b8bd 5a12 2bbe
00000120: 27df 5abd aa5a 73bd dc0f e0bc 5f82 58bd
00000130: 91c9 10bd c801 7fbc 30b6 8ebd bd4f 0cbd
00000140: 4106 973a fee4 bfbd a537 b6bd 2436 f8bd
00000150: 7cab b3bd e91a c4bc 0878 97bd 00f3 95bd
00000160: aaa6 2abc 52bb 2cbd 6539 abbd abc5 8cbd
00000170: d03c 12bd ab61 38be 4fac b7bd bc27 a2bd
00000180: 1e76 49bd 21ee 18bd 7d1a 52bd ca42 1cbd
00000190: ab15 05bd 3308 b3bd c07f 5fbd 872f 7bbd
000001a0: 286d f5bc 6a75 f3bc c9c9 4cbd edaa b2bd
000001b0: 2b04 983d dbfa 06bd 4438 a3bd 3181 80bd
000001c0: 99d0 d4bc 26ac bfbd 2795 39bd b388 60bd
000001d0: 58a3 4bbd e785 5cbd 09ac 05bd caef 0fbd
000001e0: c4d2 92bd cec3 30bd 6553 e9bc 2fb0 8dbd
000001f0: 50c3 95bd e64c 71bd 63cf 5fbd be85 7fbd
-0.08509489 -0.052986033 -0.048580248 -0.06639984 -0.05482947 -0.04099262 0.0117992535 -0.025351623
-0.06373713 0.12150295 -0.05497117 0.037270647 -0.03772204 -0.05300033 -0.060262717 -0.025924526
-0.08035574 -0.095353775 -0.033586282 -0.20685492 -0.18680164 -0.074425235 -0.054886743 -0.032306176
-0.028389364 -0.055266242 -0.07227842 -0.06278852 -0.06857273 -0.06472054 -0.024840573 0.07572389
-0.04489134 -0.04957276 -0.07195142 -0.05678667 -0.057499066 -0.07497576 -0.06325815 -0.058914825
-0.039551187 -0.05363721 -0.030098286 -0.08037637 -0.043274432 -0.042682715 -0.047059074 -0.043804724
-0.2260352 -0.06558851 -0.06656695 -0.059857287 -0.07223755 -0.044059858 0.0060545034 -0.049105577
-0.029740449 -0.06504527 -0.06535343 -0.040279556 -0.043677345 -0.06450606 -0.041765578 -0.11204764
-0.07184859 -0.04317204 -0.043040067 -0.04150918 -0.037106648 -0.0496137 -0.089900434 -0.1670622
-0.05343547 -0.059412636 -0.027351312 -0.052858707 -0.03534848 -0.0155643895 -0.06968343 -0.03425573
0.001152225 -0.09369849 -0.08897332 -0.121197015 -0.087729424 -0.023938613 -0.07395941 -0.07321739
-0.010415712 -0.04217083 -0.083605565 -0.0687364 -0.035702527 -0.18006007 -0.08968412 -0.07917735
-0.04918491 -0.037336472 -0.051294792 -0.038149633 -0.032491367 -0.08741798 -0.05456519 -0.061324622
-0.029959276 -0.029719073 -0.049997125 -0.08724008 0.0742267 -0.03295408 -0.07969716 -0.06274641
-0.025978373 -0.093590066 -0.04530826 -0.054817867 -0.049716324 -0.053838637 -0.03263477 -0.03514079
-0.071691066 -0.043155484 -0.028482148 -0.0691837 -0.073126435 -0.058911227 -0.05464114 -0.062383406

fc2.weight f4 [64, 128]
00000000: d993 dcbc cd6e dbbb cbea abbd 1dfd 52bd
00000010: 9649 01be 0027 b23d c469 9a3d 856b 133c
00000020: c5c0 12be f553 51bf e97e 73bb a112 113e
00000030: cf07 37bf 158f 643c d59b abbd 816f 3d3d
00000040: 5732 973d b694 9ebd 63f3 ebbd eac5 a73d
00000050: 1c21 d63d d96d d2bc f5c6 0f3d c76c 89bc
00000060: 0d2e ca3b 12fe c4bd fd09 15be 0a5b 933c
00000070: 7794 edbc 0ad9 09be 6ba3 023e 9430 c2be
00000080: 3dc4 02be 9b76 30bd 5c36 19bc 2f2a a9bd
00000090: a85b 71bc b13f b6bb 495a d23c d8c9 113e
000000a0: c4c0 1e3d 17ff 7c3d 84b3 a13a ead5 64bd
000000b0: a771 b6bc bf6e efbd 9872 22bd e0d4 dc3c
000000c0: 923c ed3d 4f9c bcbd f862 1cbf 1c49 d0bd
000000d0: a227 a4bd 655d 04be 3c9f b53d a2bf 20bd
000000e0: 715d a3bc 4d57 e8bd 5f5e e3bc 7422 41bd
000000f0: 0141 a43c e2a4 c6bb 2142 94bc 3da4 833e
00000100: 5c52 10bd ef38 f13b 8966 31bd 17cf 4f39
00000110: 1fce 51bd a737 dd3c d204 dabb b331 be3d
00000120: 813a 783d f0b8 dbbd 69ba ccbd 9ef4 543e
00000130: cc49 f5bc 12cf 09bf a5ae d93c af7d 03bc
00000140: ca4c dbbc 2029 00bd 6131 28bd 3f48 3abf
00000150: 56e6 97bd a6fa d33c 003a dcbb bec4 5b3c
00000160: 49ce a93d c82f 4e3c d821 aeba 925e b43c
00000170: 99d6 99bd fea9 0dbd cf6a 123e 7501 0dbe
00000180: 3c6a c53d eff0 593c 71bb 83bd ddfd cd3c
00000190: 1d0c ebbc dd21 02be 972d a7bd cd57 133c
000001a0: 7a8c d0bd c730 c6bd cfbb 12bb 815a 2c3c
000001b0: 9f23 0ebf 73c6 a73c 031d 72bd 2dc5 c83b
000001c0: cb41 e3bd e469 09be 4385 4cbd 9989 cf3c
000001d0: 895d 113e 7dc9 9abc 9504 bb3d 3b1e b73b
000001e0: 5ddd 78bd a2dd a63c ac84 c4bd 6fb0 163e
000001f0: 0f90 68bc b916 adbc 3f73 0cbd 5a19 14be
00000200: 88bb 173e 4777 59bd e6fd 6f3d 2f20 48bc
00000210: 65a7 5fbd 2bb9 9d3c 65b5 7ebe 3b2c 4c3d
00000220: 378e 8c3d 1579 bdbe 0415 893c 419b 53be
00000230: 3b50 3fbe 6401 0f3e d5be bb3b 5f29 143d
00000240: b0af 36be b26c 053e 064e 97bd a8c6 d8bd
00000250: 4627 51be 6f57 7dbd 99d8 533d f311 75bd
00000260: 011a 9dbc 36eb 4f3d 4c90 cc3d 206e 583c
00000270: 5ee1 03be 5cfa 773d ae55 64bc 3403 1dbd
00000280: 882a ab3d c251 5dbd fba2 9a3d 5f84 d1bc
00000290: 1119 59bc 42c9 33bd 74cc 1cbd 18c2 e0bd
000002a0: 6a97 a53d ca0e adbd a17e d53b 8f2e 313d
000002b0: 3f2a adbd e7dc 043e 0ef8 603d 49d8 42bd
000002c0: 706c 20be 858c 8a3c 006f 26bf a0e2 bb3d
000002d0: 7d54 943d 6897 36bb 4c73 85be 8c78 d73d
000002e0: c8f7 9d3d 0e12 bf3d c242 cb3d 73d9 fe3b
000002f0: 2be6 7cba 00d9 8ebd bbd8 943d 0e13 18be
00000300: 5c46 b83d fd34 e33d b4ad ba3b 4ce8 133d
00000310: 03ef 903a 5eac e53c 9c5c 803d 8c4c 18bd
00000320: 89f7 0bbd 273f 0c3e 3225 ecbc c1eb a8be
00000330: e76e 933c df8b e03d c182 073e 83e2 e2bd
00000340: 8d9c ae3c aafe 51bd 0ea3 763d 1a79 aabc
00000350: cef2 cdbb 1272 373d 2b8a ad3d 07e4 99bd
00000360: 25f7 82be 2c8a 69bc 56a2 9b3c c16e aebc
00000370: 8974 ff3d 6404 69bd ee91 9d3d 2092 a8bd
00000380: 49a6 85bd 30c7 5a3d c0a1 e93d 19ca 173d
00000390: de72 113d 7b75 043c 7706 4fbc ef38 183d
000003a0: 12e2 c03d fb40 8c3c 37fe 8c3d f21e 7f3d
000003b0: 4332 d3bd 654e d03d de9a 033e b4b1 143d
000003c0: 0a5a 373d 7826 c63d 97e9 8b3c 465b 90bd
000003d0: 5c36 4abd 722f ae3d 8cd3 dbbe 5c89 823d
000003e0: 418c 813d b7b0 9b3d 392c 1b3d 0745 3a3d
000003f0: cef0 763d 5ef5 82bc 978f 30bc c03d e53d
-0.026925968 -0.006696558 -0.083943926 -0.05151092 -0.12625727 0.08698845 0.075397044 0.008997803
-0.14331348 -0.81768733 -0.0037154502 0.14167263 -0.7149629 0.013950129 -0.08379332 0.046248917
0.073826484 -0.07743208 -0.11521032 0.08192046 0.10455534 -0.025687145 0.03510185 -0.016775502
0.0061700405 -0.096187726 -0.14554591 0.017987747 -0.029001458 -0.134617 0.12757652 -0.37927687
-0.12770171 -0.04308186 -0.009351339 -0.08259999 -0.014731325 -0.005561792 0.025677817 0.14237154
0.038758054 0.06176671 0.0012336825 -0.055868067 -0.02227099 -0.11691045 -0.039660066 0.026956975
0.115838185 -0.09209501 -0.61088514 -0.101701945 -0.08015372 -0.12926252 0.08868262 -0.039245255
-0.019942017 -0.11344776 -0.02775496 -0.047151998 0.020050528 -0.006062136 -0.018097939 0.2571124
-0.035234794 0.0073615233 -0.043310676 0.00019818205 -0.051221963 0.027004076 -0.0066534067 0.09286823
0.06060267 -0.107286334 -0.099964924 0.20796439 -0.029942416 -0.5383159 0.026572535 -0.008025571
-0.026770014 -0.03128922 -0.041062716 -0.7276649 -0.0741698 0.025876354 -0.0067207813 0.013413606
0.08291299 0.012584634 -0.0013285233 0.02201775 -0.075116344 -0.034585945 0.14298557 -0.13770087
0.09639403 0.013302072 -0.06432236 0.025145466 -0.0286923 -0.1270823 -0.081629924 0.008993101
-0.10183044 -0.09677272 -0.0022389775 0.010519625 -0.55523103 0.02048037 -0.0591097 0.006127021
-0.110965334 -0.134193 -0.049931776 0.025334166 0.14195837 -0.018894905 0.09131733 0.0055883205
-0.060757983 0.020369355 -0.09595618 0.14715742 -0.0141945025 -0.021129 -0.034289595 -0.14462796
0.14817631 -0.053092267 0.058591746 -0.012214704 -0.054603 0.019253334 -0.24873884 0.04984687
0.06863063 -0.3700644 0.016733654 -0.20664693 -0.18682949 0.13965374 0.005729536 0.036172267
-0.17840457 0.13029745 -0.07387929 -0.10584766 -0.20425138 -0.06185096 0.051720235 -0.05983157
-0.019177439 0.050761424 0.0998846 0.01320985 -0.1287894 0.060541496 -0.013936443 -0.038333133
0.083577216 -0.05403305 0.07550617 -0.025575815 -0.013250605 -0.043893106 -0.03828092 -0.109745204
0.080855206 -0.084500864 0.0065153395 0.043257292 -0.084553234 0.12974893 0.054924063 -0.047569547
-0.15666366 0.016912708 -0.6501312 0.09174085 0.07242677 -0.0027861241 -0.26064527 0.10521039
0.07713276 0.093296155 0.099248424 0.007777387 -0.0009647335 -0.06974983 0.072679006 -0.14851019
0.08997795 0.11094091 0.0056969766 0.036110207 0.0011057559 0.028036293 0.06267664 -0.037182376
-0.034171615 0.13695966 -0.02882633 -0.32992366 0.017997218 0.10964178 0.13233472 -0.1107836
0.021314884 -0.051268257 0.060214095 -0.020809699 -0.006285048 0.04478652 0.08473619 -0.07514196
-0.2557918 -0.014254134 0.018998306 -0.021293046 0.12473399 -0.056888953 0.076938495 -0.08230996
-0.06525857 0.053412616 0.114078045 0.03705797 0.035509937 0.00808465 -0.012635819 0.03716367
0.094181195 0.017120829 0.06884425 0.06228537 -0.10312321 0.101712026 0.12852046 0.036302283
0.044763602 0.09675306 0.017079158 -0.07048659 -0.049368247 0.08505143 -0.42934835 0.063738555
0.063255794 0.07602065 0.03788397 0.045475986 0.060288243 -0.01598614 -0.010776422 0.111934185

fc2.bias f4 [64]
00000000: cd30 73bd a193 69be c9b9 c6bd 09fe 1d3e
00000010: 39fb 9abd 1258 e2be 903c 1fbf a3eb 71be
00000020: bfef d4be a0fe 943e f117 e8bd 1cab 10bf
00000030: 452e ffbe 9434 6c3a ae71 4ebe 5dd1 9fbd
00000040: 8987 95bf fd62 e6be e5b4 51bd b4f7 f33c
00000050: 7543 c6bd 8675 ebbe cd80 6bbf 4e19 75bd
00000060: 0078 6cbe 4fde 2fbe 70ce 16be c71c b13c
00000070: c730 c7be 71c7 e9be 86b3 4b3e c083 a9bd
00000080: 19bc 133f fd38 8abc b611 c6be c75d f8bd
00000090: 2052 65bf 5e63 0ebe c793 473b efa9 333c
000000a0: 81a6 45bf af6c 08bf 0c6b bb3f 93de 15be
000000b0: 94e5 33bf 6c96 73bc 2b84 dabd c457 dbbd
000000c0: ace3 03bf 36d2 a3bd 7dd5 143d 17ef dabd
000000d0: 44a9 85bd 41b6 acbd e6d9 95bd 5873 89be
000000e0: 6c6b cbbe fe3e 1bbf 850a 903c b2b1 30be
000000f0: 05cb 0cbe 5b08 0abe 174d afbe bdc5 b2bd
-0.059372712 -0.22810222 -0.097034045 0.15428938 -0.07567448 -0.44207817 -0.62201786 -0.23625045
-0.41589162 0.29100513 -0.113326915 -0.5651109 -0.49839988 0.00090105203 -0.20160553 -0.07803605
-1.1681987 -0.44997397 -0.051197905 0.0297812 -0.09680835 -0.459881 -0.9199341 -0.059838586
-0.23092651 -0.17174648 -0.14727187 0.021620167 -0.38904402 -0.45659974 0.19892702 -0.082770824
0.5770889 -0.016872877 -0.38685387 -0.121272616 -0.8957844 -0.13905093 0.0030453072 0.010965808
-0.7720719 -0.5329084 1.4642043 -0.14635687 -0.70272183 -0.014867406 -0.1066974 -0.10710099
-0.51519275 -0.07999079 0.03633641 -0.10690134 -0.065264255 -0.084332 -0.073169515 -0.26845813
-0.39730394 -0.60642993 0.017583141 -0.17255285 -0.13749321 -0.1347975 -0.34238502 -0.08729122

fc3.weight f4 [10, 64]
00000000: 2da7 c8bd 916a 63bc 39b1 87bc 75a6 803d
00000010: beef b0bc 3cb3 b7bc 350a c8bd 8746 32be
00000020: c533 c33d 580f 753c b9b9 b73b 6adf 673e
00000030: b186 5cbd 5f7f a4bd d016 903e 6116 d03d
00000040: e44c 92bd f62d cfbc a899 17be b708 893e
00000050: cb94 61bd 66d8 4e3e e5c8 fabb 5010 c5bd
00000060: 5839 f2bc 6031 49be 7118 a9bd cb56 57be
00000070: fe62 593e 6588 903d 9e88 1b3d 8eb4 4abe
00000080: a6b6 033e c74b 873d 99f5 12be 8ff6 463d
00000090: 15be 81bd ddf9 4bbe ae09 87bc 3b78 3d3d
000000a0: 2385 0ebf 4741 e8bd dc6e 8c3d 6b92 113d
000000b0: 0ef6 a4b9 a7de 243d 5952 083e fcd2 2dbc
000000c0: 0344 a9be 19e7 643d ddb6 283e 73f0 c7bd
000000d0: a0fd c5bd 91da cc3c 2b0f 18be 86f3 863c
000000e0: 2adb f73d 7b45 793e 2bf5 f3bc f8d2 d93e
000000f0: 9476 69bd 81b1 e33d 3898 6b3e b8ec 47bd
00000100: fa3d 7bbe 3a11 b7bd 31eb 64bd e1eb 0fbf
00000110: 942c 653c f09b ddbd be8d d23d bc2e 423e
00000120: 6f57 dfbd 63bb 25be 03f0 5fbd add7 95be
00000130: 2483 723c 51c7 44be 404a d0be ab78 7d3d
00000140: b770 2a3e 2496 123c a1b2 923b 9a45 da3c
00000150: 16a2 3b3c a012 4d3d 3e1e 5b3d 98be 123e
00000160: 6684 f53c 7611 643e 2d95 de3d 690c 0bbe
00000170: a30f a2bd fcd9 873d 4e57 c0bd 9481 9e3d
00000180: d0d3 ae3d 2492 cdba 7021 e5bd 4151 3cbd
00000190: d3bc c8bd 3553 9e3e c32a 1dbd 3220 d23c
000001a0: 600f b9be 12cc 28be f879 6a3d 5b72 95ba
000001b0: 95fa 2a3d 0dab afbd d2b3 88bc 5f93 b8bd
000001c0: 7300 82be ed9a b23b c924 ebbd fae6 b53d
000001d0: e11a f73d 6f7b c03d d294 933d b476 df3d
000001e0: bac4 83bd 7090 87be a094 a33d 7c97 673c
000001f0: b84b 083d dd16 07bf 141b 29be a1cc 313e
00000200: 8cec 21bd 0915 913e 9569 2abd 1e81 1b3e
00000210: 3db2 11be 004b 353e e8f2 833e 3c89 abbd
00000220: f1e6 a33e c575 9ebd fe49 113d 71de 513d
00000230: 4d32 233d f2d0 88bc a508 4b3d 97b3 d1bd
00000240: d69b 2a3e 4461 e0bc badc d63c bc15 663c
00000250: 783a b73c 3896 083e 021d 0b3e 7fb7 4f3d
00000260: 2c37 afb7 9416 8b3e 2551 873d 6758 5dbe
00000270: 8f2d 983d d2c3 623c b8e8 04bd 66bc 5f3d
00000280: 6708 a5bd 9864 643d f05d 7c3e 6835 843b
00000290: 02e7 dabd 6632 9abd c53d 2d3c a4bf 59be
000002a0: 9444 afbd f5e8 35bf 183d 9d3d eb93 233b
000002b0: 6284 e53d c03a 0bbc a5ce babd 6661 96bd
000002c0: d7c5 14bf f12a bfbd 6e0b b73b e412 8bbd
000002d0: 4808 713d b523 a73d aa1b 503d e2a1 4ebd
000002e0: 8bf8 0b3e 421c 76bd eec6 aebd 71e8 103d
000002f0: 4368 5d3e 1293 2c3c 8364 fcbd 8045 523d
00000300: acdb d9bd e967 a5bd 7a33 bcbd 799d bfbd
00000310: be1d 5abd 6eff 983b b1d5 ce3d 3334 0bbe
00000320: 6a4d 013e feb5 0abe bd9d 4dbd b2e6 29bd
00000330: 6f93 20bd 1c73 b0bd 521f e3bc c197 48bc
00000340: 94af e03d ba07 11bd 432d 22bc 6f3a a53d
00000350: b7de 673c ec1b 4f3d 4320 5f3e 8103 d7bd
00000360: 453a 22bd 9282 81be 55ab 29be 23d0 c93c
00000370: dd4d 31be 9d84 913e 1c83 4f3e b792 4e3d
00000380: a869 3abc 54db 793e 48b3 09be 6227 98bc
00000390: 93c9 d8be 725d 0f3d e240 bd3d 8aed 4fbd
000003a0: b74c 50be a39b 88be c619 2e3e 7451 093d
000003b0: 79b5 143e 5bc4 a7bd bcb6 ba3d 03f0 97bd
000003c0: 99ad 89be e717 b13c 72fa a43c 4088 4e3e
000003d0: 76dc 9b3e b87c b7bd d1f9 c93c 5914 b0be
000003e0: d064 c93d dacc a1bd 9c22 03bc 76b2 b4bd
000003f0: f12e 2cbe 900a 303a 8bed 683e 0642 22bd
-0.09797511 -0.013880388 -0.016563999 0.06281749 -0.021598693 -0.022424333 -0.09767572 -0.17409717
0.09531359 0.0149572715 0.0056068567 0.2264382 -0.05383939 -0.080321066 0.28142405 0.101605184
-0.07143572 -0.02529047 -0.14804709 0.2676446 -0.05507354 0.20199737 -0.007653343 -0.09622252
-0.02956836 -0.19647741 -0.08256615 -0.21029203 0.21229169 0.07057265 0.037972085 -0.19795439
0.12862644 0.0660625 -0.143515 0.04857498 -0.063350834 -0.19919534 -0.016484108 0.04625724
-0.556719 -0.11340576 0.06857082 0.035540026 -0.00031463843 0.0402514 0.13312663 -0.010609385
-0.330597 0.055884454 0.16476007 -0.09762659 -0.09667516 0.025006564 -0.14849536 0.016473543
0.12102349 0.24342911 -0.029779991 0.4254377 -0.05699785 0.111178406 0.23007286 -0.048809737
-0.24535361 -0.089388326 -0.05588836 -0.562193 0.013987679 -0.10820758 0.102809414 0.1896314
-0.109053485 -0.16184764 -0.054672252 -0.2926611 0.014801774 -0.19216658 -0.40681648 0.061882656
0.1664456 0.008946929 0.0044768606 0.026644517 0.0114522185 0.05006659 0.053495638 0.14330518
0.029970359 0.22272286 0.10868297 -0.13578953 -0.07913139 0.06633374 -0.09391652 0.07739559
0.08536494 -0.0015683812 -0.11188018 -0.045975927 -0.0980164 0.30922857 -0.03837086 0.025650118
-0.36144543 -0.16484097 0.057245225 -0.0011401878 0.04174288 -0.08577547 -0.016687308 -0.09012484
-0.25390968 0.0054505975 -0.114816256 0.08881946 0.120656736 0.09398543 0.072061196 0.10911313
-0.06434007 -0.26477385 0.07987332 0.014135238 0.033275336 -0.5276926 -0.16514236 0.17363216
-0.03953223 0.2833636 -0.041604597 0.15185973 -0.14228149 0.17704391 0.2577126 -0.08375785
0.32012132 -0.077373065 0.035470955 0.051237527 0.039842892 -0.016701195 0.04956879 -0.10239332
0.16661009 -0.02739013 0.026228298 0.014043268 0.022366747 0.13338554 0.13585284 0.050712105
-2.0887317e-05 0.27165663 0.06607274 -0.21615754 0.074305646 0.0138406325 -0.0324485 0.05462303
-0.08058243 0.055759996 0.2464521 0.004034687 -0.106885925 -0.07529144 0.010573809 -0.21264511
-0.08558002 -0.7105859 0.07677668 0.0024959992 0.11206891 -0.008497894 -0.091214456 -0.07342796
-0.5811438 -0.09334362 0.0055860793 -0.067907125 0.05884579 0.081611075 0.050807633 -0.050447352
0.1366903 -0.060085543 -0.085340366 0.035377923 0.21621804 0.010533111 -0.123238586 0.05133581
-0.10637602 -0.0807646 -0.09189506 -0.093562074 -0.05325102 0.0046691215 0.10099352 -0.13594131
0.12627187 -0.13545987 -0.05019926 -0.041479774 -0.039203104 -0.08615705 -0.027724896 -0.012243212
0.10970989 -0.03540776 -0.009898487 0.08067786 0.01415222 0.050563738 0.2178965 -0.10498715
-0.03960635 -0.2529493 -0.16569264 0.02463538 -0.17314859 0.28421488 0.20264858 0.050432887
-0.0113777295 0.24400073 -0.13447297 -0.018573467 -0.4234129 0.035001226 0.09240891 -0.050763644
-0.20341764 -0.2668124 0.1700202 0.033524945 0.14522351 -0.08191749 0.09116885 -0.074188255
-0.26890257 0.021617843 0.020138953 0.20169163 0.30441636 -0.08959335 0.024655255 -0.34390524
0.098336816 -0.079004005 -0.008003857 -0.08823101 -0.16814782 0.0006715441 0.22746865 -0.039613746

fc3.bias f4 [10]
00000000: b43b d63b 32a0 ca3d 45a3 94be 970e c2bd
00000010: 0eb7 34bf 0f61 5ebe cff3 843e 4b90 89bf
00000020: 15f9 b33f 465d 053e
0.006537879 0.09893836 -0.29030815 -0.09475439 -0.7059182 -0.21716712 0.2596726 -1.074716
1.4060389 0.13023862
